last_brainT.pth (torch_old, 5782 bytes, 12 tensors)

fc1.weight f4 [30, 5]
00000000: 8cf9 21bf 385f 06c0 4b47 143f f3f1 e73e
00000010: 93bb ea3f 48ef 9640 2a86 06c0 0279 1e3f
00000020: c9b4 60be 8dbc c93f 889a e1be b446 9e3e
00000030: 0c26 b2be aaf9 b4be 98ac babd cba0 3c40
00000040: 57b2 3cc0 561c 743e 7592 223e 1428 0840
00000050: f4d4 6740 3f3e 62c0 60bd 033f fb9b eabe
00000060: c46c fe3f 901c 723d 4940 4ebe 45f7 75be
00000070: 48a6 35bd fd85 c6be 4ab2 8a40 91c1 dfc0
00000080: 9ef6 7bbe 3ee1 51bf f8b5 4f40 9f53 68be
00000090: 002b e13d 2e69 1bbe d017 38be 8c10 babe
000000a0: c38f 81bf 752f 30c0 5497 d63d 4d6a 373f
000000b0: c008 ca3f d0a9 613f d1ba 4fc0 abfc b4bd
000000c0: 0fb4 0f3e 5fb0 0c40 8fd7 9b40 6c0b 43c0
000000d0: 60b7 093f b4c3 01bf 9cc9 1140 76ac 7740
000000e0: f0c2 63c0 1be3 afbd 9dda 41bd e17c 0f40
000000f0: 82b3 a940 eeb7 1ec0 e0a5 3c3f 118a 91be
00000100: 9135 da3f a517 4a40 4d7e 37c0 0083 013f
00000110: 4a7a 583d db02 c33f 4023 c540 cf3a e9c0
00000120: 1941 ad3d fc95 65bf 626f 2a40 38ea 7040
00000130: e8f4 3ac0 96f0 f73e d392 0cbb 75f3 1b40
00000140: 3f58 8b40 9a49 d8bf 9c74 3f3f 0d51 cd3e
00000150: 6b75 a03f d97d a740 5e59 38c0 c896 223f
00000160: 5df3 f5be 7429 0840 3be2 2a40 187c 3bc0
00000170: ba92 d5bb d5e0 f73d c10d 0640 4887 823d
00000180: 400b be3d c487 8abe 0833 c03d 9c62 9cbd
00000190: a45f d240 c792 afc0 1761 af3e e404 79bf
000001a0: 4785 1340 d3fa 0f41 b76e a8c0 2077 663f
000001b0: 37db a9bf feb8 973f 045e 753f 12de 1ec0
000001c0: 809d e43e da66 873e 9281 0040 ee8e aa40
000001d0: 404d 17c0 1102 ea3e e4dc c3be 834f 0840
000001e0: d9e9 1b41 3714 10c1 57ce 463f a7be 7ebf
000001f0: 5fd3 8f3f 78d6 0e3e 7513 8b3e bf04 8bbd
00000200: 5638 f23a 7f3c 47be 0336 eb3f 9102 46c0
00000210: 06a6 29be 4f15 ca3e f953 0540 f009 0d3b
00000220: a769 a83e b714 253e ceb9 91be 448c 6abe
00000230: 89dc 3640 9be6 d5c0 2b30 62be bfa9 3fbf
00000240: 8efe 3c40 ea56 9a40 f357 55c0 450a 0f3e
00000250: 78e2 9fbe e58a 0c40
-0.63271403 -2.0995617 0.57921284 0.4530178 1.8338493 4.716709 -2.1019387 0.61903393
-0.21943964 1.5760666 -0.4406321 0.30913317 -0.34794652 -0.3534673 -0.09114951 2.947314
-2.948385 0.23838934 0.15876181 2.1274462 3.6223726 -3.5350492 0.5146084 -0.4582213
1.9876943 0.05910927 -0.2014171 -0.24020107 -0.04434803 -0.387741 4.334264 -6.9923787
-0.24605796 -0.8198432 3.2454815 -0.22688149 0.1099453 -0.15176842 -0.17977834 -0.3634075
-1.0121998 -2.7528965 0.10478082 0.7164658 1.578392 0.8814974 -3.2457774 -0.08837255
0.1403353 2.1982648 4.8700633 -3.0475721 0.53795433 -0.50689244 2.2779303 3.8699012
-3.558773 -0.08588239 -0.047327626 2.241997 5.3031626 -2.4799762 0.73690605 -0.2842565
1.7047597 3.1576931 -2.8670838 0.50590515 0.052851 1.5235246 6.160553 -7.288429
0.08459682 -0.89681983 2.6630483 3.7642956 -2.921198 0.4842574 -0.0021449819 2.4367344
4.354522 -1.6897461 0.74787307 0.401009 1.2535833 5.2341123 -2.8804545 0.63511324
-0.48037234 2.12753 2.670058 -2.929449 -0.0065177353 0.1210343 2.0945895 0.06373459
0.092794895 -0.27056706 0.093847334 -0.07635996 6.574175 -5.486667 0.3425376 -0.9727309
2.3050096 8.998736 -5.263515 0.9002552 -1.3270024 1.185333 0.9584658 -2.482304
0.44651413 0.26445657 2.0079083 5.3299475 -2.36409 0.45704702 -0.38254464 2.129853
9.744592 -9.004935 0.776586 -0.9950966 1.123638 0.13949001 0.27163282 -0.067880146
0.0018479924 -0.19456671 1.8375858 -3.0939066 -0.16567239 0.39469382 2.0832503 0.0021520816
0.32893106 0.16121183 -0.2846207 -0.2290507 2.8572104 -6.6844 -0.22088687 -0.74868387
2.9530368 4.8231096 -3.333493 0.13968761 -0.3122747 2.1959774

fc1.bias f4 [30]
00000000: 9e17 5a40 9d61 cc3f 3be9 d3be 8d78 3340
00000010: 0742 1740 8798 bbbe 9a20 2740 fe49 35be
00000020: 4c0e 3a40 7e10 3740 33bf 1940 cf27 4540
00000030: 6bd0 0a40 1842 0e40 edc9 1640 748f 2940
00000040: bf9e 1540 361a 0140 8fa8 4440 4fa1 97be
00000050: 46f5 f03f 9cd6 1e3f 8312 4e40 3139 f93f
00000060: 551b 0b3f 23fc 1140 bab4 3440 bd9a fc3f
00000070: 6227 3d40 b3b9 0540
3.4076915 1.5967289 -0.41388878 2.8042328 2.363405 -0.36639807 2.6113648 -0.17704007
2.9071226 2.8603816 2.4022949 3.0805547 2.1689708 2.222784 2.3560746 2.6493807
2.337814 2.0172248 3.072788 -0.29615256 1.8824852 0.6204622 3.2198799 1.9470578
0.5433858 2.2810142 2.8235307 1.9734722 2.9555287 2.0894592

fc2.weight f4 [5, 30]
00000000: aef1 f03e f1f9 233f 017b 04be 59bf 793f
00000010: a892 b83f 3477 25bd 14f8 0140 d43e 143e
00000020: 5bdc 293f 0a85 de3f 7867 a33f 5e7e c83f
00000030: 264d 263f 9bfd 403f ed10 f73f d2d1 6c3f
00000040: 39c5 4b3e 40c3 823f b491 a83f 6e3e c2bd
00000050: e517 b63f faf0 893f a6ef 393f 61bf 743f
00000060: 913a 833f 4e04 e63f ddd8 9a3f e911 0440
00000070: 2d9e 1040 488b bc3f 728f 843f 5561 1b3f
00000080: 5048 793d 3ab1 7e3f ebb5 5b3f 64cd 34bd
00000090: 9eb4 0d40 3077 0ebc 4e99 8b3f d068 af3f
000000a0: 5933 343f dded 653f 5c7e 233f bcf4 563f
000000b0: 5222 1040 e627 423f e50a 073f a893 3a3f
000000c0: 9bf1 943f 3053 dbbc 98cc 923f f6ba 843f
000000d0: f727 843f 4d65 033f 06de 2840 dde2 93bc
000000e0: 815f 9a3f efcc 88bd fe29 2b40 a9c3 653f
000000f0: 2688 cd3e f468 933f a0c9 7cbd ec99 5b3f
00000100: bd55 ae3f c445 8e3d ed18 cc3f 82e7 78bd
00000110: 475e 743e 98af 673f fb46 b43f 488c 8b3f
00000120: 62ce 993f ff63 5d3f f63e fb3f 616b 563f
00000130: a728 183f 84b6 ac3f fb1e 753f 6088 013d
00000140: 4310 ce3f 3514 fb3f 4ba5 293f 3805 a23f
00000150: 33b4 5c40 8af4 edbd 74e1 373f 9c21 863c
00000160: 0188 cc3f 9daa b83f 46a3 463f 635c 3e3f
00000170: c287 e2bd 2323 383f 51aa 4a3f 4004 56bd
00000180: 326a 2040 647c febd ae33 423f 664f 9d3f
00000190: 46b2 7e3f b8b1 623f 17e8 553f e954 323f
000001a0: bf03 1a40 41ff 4a3f 732c 503f 3259 533f
000001b0: e1a9 903f 6ade 2cbe ef20 743f 2841 883f
000001c0: 4a4c 8a3f 9364 5d3f 0709 4040 00df b53d
000001d0: b13a 973f 7c73 27bd e103 2340 88a4 9e3f
000001e0: 5541 1a3f be4b 363f fc72 813d 507e 6d3f
000001f0: 484d 8e3f f4e5 983d 1882 0a40 219f a7bd
00000200: 13ee f93e a6d8 963f 623f 923f ccd8 b73f
00000210: 8c07 633f b195 433f bfdc 0240 e8e2 393f
00000220: 206a b43e 3625 a13f 8c92 b03f 23e2 81bd
00000230: df32 ba3f 6634 c23f 8dff 223f 290d 883f
00000240: 3d9e 1740 d5c3 25be c8b8 8c3f 7a85 2e3e
00000250: ddc5 0540 2ec6 bb3f
0.47059387 0.64053255 -0.12937547 0.975576 1.4419756 -0.040396884 2.0307665 0.14477092
0.6635186 1.738435 1.2765951 1.5663564 0.6496147 0.7538697 1.930204 0.9250766
0.19899453 1.0215836 1.3169465 -0.09484564 1.4226042 1.0776665 0.726313 0.9560452
1.0252248 1.7970064 1.2097431 2.0635931 2.2596543 1.4730005 1.0356276 0.6069539
0.06085998 0.99489176 0.8582446 -0.04414119 2.214149 -0.008695409 1.090616 1.3703861
0.7039085 0.89816076 0.63864684 0.83967185 2.2520947 0.7584213 0.52751 0.72881556
1.1636232 -0.026773065 1.1468687 1.0369556 1.0324696 0.5132645 2.6385512 -0.018052513
1.2060395 -0.06679713 2.674438 0.8975168 0.40142936 1.1516404 -0.061715722 0.8578174
1.3619915 0.069469005 1.5945107 -0.060767658 0.23864089 0.9050231 1.4084162 1.0902185
1.2016108 0.86480707 1.9628589 0.837576 0.5943703 1.3493199 0.957504 0.031624198
1.6098713 1.9615542 0.6626784 1.2657843 3.4484985 -0.11618908 0.7182839 0.016373448
1.5979005 1.4427067 0.77592885 0.7435972 -0.1106105 0.71928614 0.7916613 -0.052250147
2.5064816 -0.124260694 0.75860107 1.2289855 0.99490774 0.8855243 0.83557266 0.6966081
2.4064786 0.79295737 0.81317824 0.82557976 1.1301843 -0.16881719 0.9536275 1.0644884
1.0804532 0.8648159 3.000551 0.088804245 1.1814786 -0.04088162 2.5471117 1.2393961
0.6025594 0.71209323 0.0632076 0.9277086 1.1117334 0.07465735 2.1641903 -0.08184648
0.4881445 1.1784866 1.1425593 1.4363036 0.8868339 0.76400286 2.0447233 0.72611856
0.35237217 1.2589481 1.3794723 -0.0634196 1.4546775 1.5172241 0.6367119 1.0629016
2.369033 -0.16187985 1.0993891 0.17043105 2.0902016 1.4669855

fc2.bias f4 [5]
00000000: ee29 ea3f 62ad 1f40 3c0e 9fbf dc7a d33f
00000010: 932f f53e
1.8294046 2.4949574 -1.2426219 1.6521869 0.4788786

exp_avg f4 [30, 5]
00000000: b661 cb3d 9970 d6bd e5d0 b63f d253 7d40
00000010: ac54 07bf 3cf7 25be 048c 1a3d d3c1 fac0
00000020: 42f2 2fc0 424b a6c0 0000 0000 0000 0000
00000030: 0000 0000 0000 0000 0000 0000 e61a 19bb
00000040: e9cc 87bc b199 89c0 a229 4f3f b0c0 95c0
00000050: 99b6 02be 5a60 ab3d a219 29c1 e1a9 48c0
00000060: 6a6f 0fc1 0000 0000 0000 0000 0000 0000
00000070: 0000 0000 0000 0000 efaf 9dbe ef1c c13e
00000080: 4e43 48c1 a376 6440 b873 24c1 0000 0000
00000090: 0000 0000 0000 0000 0000 0000 0000 0000
000000a0: 289c 333e 9d4c eabd 2b6b 2c40 63f8 9b40
000000b0: 1f28 12bf 9006 e43d 44bc f1bc 48ee 9bc0
000000c0: bb78 b23f fdc3 e4c0 d7da 3dbe f043 bd3d
000000d0: f7c8 37c1 8150 8dc0 66ae 0dc1 5425 9dbd
000000e0: 965f ac3d 2dce 01c1 ae5d 6cbf 814c 0ac1
000000f0: 9872 37be 8bcf 183d 05d3 05c1 0218 3fc0
00000100: 3008 aec0 7d38 28bd f267 2cbc fb63 8fc0
00000110: fc21 b03d de5b 82c0 d3b8 11bf 21cd 083f
00000120: 7a0b 89c1 9fd2 4840 2509 24c1 e815 f7bc
00000130: c8a6 df3b b7e2 a8c0 af34 49bf 1208 9ec0
00000140: 015d 48bd a0a0 1bbd 5570 12c0 a29e 31be
00000150: 5e94 aabf 08e7 45be 06e2 8d3d 075d 29c1
00000160: 0b1e 6fc0 6366 f3c0 b212 f03b fd48 8dbc
00000170: 03db b9c0 5ae0 7f3e e7b7 c9c0 0000 0000
00000180: 0000 0000 0000 0000 0000 0000 0000 0000
00000190: d5de 0abf 6bf1 d83e fbfe b9c1 6ef6 39c1
000001a0: 5592 45c1 cc02 5cbf aa95 d53e 1e0a a9c1
000001b0: 235e b7bf 5bdc c8c0 7e69 693d 9464 99bd
000001c0: 16ca b9bf 11ed fd3f b946 20c0 e54b 50be
000001d0: 0511 ad3d df61 2ec1 1dc5 9ac0 441d f1c0
000001e0: 1bb8 cbbf 30e6 903f cf52 b8c1 ea41 4640
000001f0: eff6 d4c0 10ed a1ae 0400 0080 10ed a1ae
00000200: 0400 0080 0400 0000 4efd b03d 42d0 6dbd
00000210: 8dfa 3ac0 6bde ee3f fd01 95c0 a11a baae
00000220: 0400 0080 a11a baae 0400 0080 0400 0000
00000230: 1b87 84be 0f24 dd3e f51c 25c1 a14d d140
00000240: 7802 1bc1 c00b 49be 46ec 2b3e 4955 28c1
00000250: b31c 19c0 0017 13c1
0.09930746 -0.10470695 1.42825 3.958241 -0.52863574 -0.16207594 0.037731186 -7.83616
-2.7491612 -5.1966867 0.0 0.0 0.0 0.0 0.0 -0.002336198
-0.016577201 -4.300011 0.809229 -4.6797714 -0.12764968 0.08367987 -10.568758 -3.1353686
-8.964701 0.0 0.0 0.0 0.0 0.0 -0.3079829 0.37717387
-12.516432 3.569741 -10.278252 0.0 0.0 0.0 0.0 0.0
0.17540038 -0.11440394 2.694041 4.8740706 -0.5709247 0.11134064 -0.029508717 -4.872837
1.3943094 -7.1489244 -0.18540512 0.09241474 -11.486564 -4.416077 -8.855078 -0.076731354
0.08416669 -8.112836 -0.92330444 -8.643678 -0.17914808 0.037307303 -8.364018 -2.9858403
-5.4384995 -0.041069496 -0.010522829 -4.4809546 0.08600232 -4.0737143 -0.56922644 0.53438
-17.130604 3.1378553 -10.252233 -0.030161813 0.006825302 -5.277675 -0.78596014 -4.938485
-0.04891682 -0.03799498 -2.2881062 -0.1734567 -1.3326528 -0.19326413 0.06927876 -10.585212
-3.7362087 -7.6062484 0.0073264474 -0.017246718 -5.807985 0.24987927 -6.303699 0.0
0.0 0.0 0.0 0.0 -0.54246265 0.42371687 -23.249502 -11.6226635
-12.348226 -0.8594177 0.41715747 -21.12994 -1.4325603 -6.276899 0.05698537 -0.07489887
-1.4514797 1.9837972 -2.5043166 -0.20341451 0.08450512 -10.898894 -4.8365617 -7.5348225
-1.591556 1.1320248 -23.040434 3.097773 -6.6551433 -7.363543e-11 -6e-45 -7.363543e-11
-6e-45 6e-45 0.08642064 -0.05805994 -2.9215424 1.8661627 -4.6564927 -8.463031e-11
-6e-45 -8.463031e-11 -6e-45 6e-45 -0.25884327 0.43191573 -10.31957 6.540726
-9.688103 -0.19633389 0.1678935 -10.520822 -2.3923767 -9.193115

exp_avg_sq f4 [30, 5]
00000000: b937 883d 27e7 a23d cf13 6544 b1f7 8244
00000010: 6d07 3943 9e68 ca3d c5d4 bd3d 7574 d744
00000020: c340 8844 ddd5 cc43 0000 0000 0000 0000
00000030: 0000 0000 0000 0000 0000 0000 0af4 bd3d
00000040: ea51 e63d 933c cf44 6a94 be44 db5b dd43
00000050: 1b0e 1e3e 3594 323e 9df8 3845 cc21 0f45
00000060: e2df 5944 0000 0000 0000 0000 0000 0000
00000070: 0000 0000 0000 0000 62d6 6b3e d60c 9d3e
00000080: 4ded 9245 3f81 7b45 58d9 d844 0000 0000
00000090: 0000 0000 0000 0000 0000 0000 0000 0000
000000a0: cba2 af3d b57e ac3d 1508 6044 8e20 8e44
000000b0: c6ce 4b43 68b5 443e 4c86 683e 4b4a 3b45
000000c0: 5850 4b45 9426 6a44 cab3 223e 75e0 2b3e
000000d0: 7179 3745 9faf 0245 fc3d 4b44 b963 073e
000000e0: ea48 273e 9115 2145 9839 1145 f5ff 4f44
000000f0: 8ccf e43d 964b d63d d208 f144 68fa 9944
00000100: 83d6 e143 c9f0 983d d041 b63d eee1 ac44
00000110: a5e6 9044 369a ac43 0773 c73e 9cb8 de3e
00000120: e38c b445 d12e 8445 27da ec44 35bf 973d
00000130: 441e b93d 1328 ac44 fb0c 9544 5fa1 bd43
00000140: 6de4 133d dc61 2e3d 4af2 1d44 85de fd43
00000150: 997c f742 3b63 133e c825 143e 0bd1 2345
00000160: ad39 de44 edf9 2844 d7d4 0f3e dee6 353e
00000170: 0c06 1e45 b6a0 1845 b127 2f44 0000 0000
00000180: 0000 0000 0000 0000 0000 0000 0000 0000
00000190: e89a 8d3e f97d 843e 023f 4b45 6bc5 f644
000001a0: b51c 7a44 cc89 113f e3bf 753e 1f0f 6245
000001b0: b373 9e44 5f33 5f44 e53c af3d b992 de3d
000001c0: daef ad44 ccfa b044 1098 9d43 acf7 013e
000001d0: 92f4 f63d 0c57 0945 3a38 b244 7aa0 0f44
000001e0: a0dc 0c40 ca6b cc3f 1f40 4e46 b69c b045
000001f0: 6ac2 3745 6b93 872a 0680 b12a 18c0 6b30
00000200: 86a5 6d30 a7e5 962b 9bc9 043e f50c 233e
00000210: 6269 0045 2dc6 0945 1378 0b44 e864 0928
00000220: 3703 5d27 c497 a12e 90c5 162d 0252 8e2d
00000230: fafe 7d3e ce04 c83e a63c a645 5c4f 9c45
00000240: 3c54 fd44 6ec0 3c3e 7c0d 5a3e 52e9 5a45
00000250: 68b6 2945 246d 7844
0.06651253 0.07954245 916.3095 1047.7404 185.029 0.098832354 0.09269098 1723.6393
1090.0238 409.6708 0.0 0.0 0.0 0.0 0.0 0.092750624
0.112460926 1657.893 1524.638 442.71762 0.15435068 0.17439349 2959.5383 2290.1123
871.49817 0.0 0.0 0.0 0.0 0.0 0.23031 0.30673856
4701.6626 4024.078 1734.792 0.0 0.0 0.0 0.0 0.0
0.08575972 0.08422605 896.1263 1137.0173 203.80771 0.19209826 0.2270748 2996.6433
3253.0215 936.6028 0.15888897 0.16784842 2935.59 2090.9763 812.9685 0.13221635
0.16336408 2577.348 2323.5996 831.9993 0.11172399 0.104636356 1928.2756 1231.8252
451.67587 0.07467801 0.088992715 1383.0603 1159.2076 345.20477 0.38954946 0.4350022
5777.611 4229.852 1894.8173 0.07409517 0.09038976 1377.2523 1192.4056 379.2607
0.036106516 0.042573795 631.78577 507.73843 123.743355 0.14393322 0.14467537 2621.0652
1777.8024 675.9051 0.14046036 0.1776385 2528.378 2442.0444 700.6202 0.0
0.0 0.0 0.0 0.0 0.27657247 0.2587736 3251.938 1974.1693
1000.44855 0.56850886 0.2399898 3616.945 1267.6156 892.8027 0.085565366 0.10867829
1391.4954 1415.8374 315.188 0.12692136 0.12058367 2197.4404 1425.7571 574.50745
2.200966 1.5970395 13200.03 5651.589 2940.151 2.408311e-13 3.153035e-13 8.5765484e-10
8.645532e-10 1.0721882e-12 0.12967531 0.15922911 2054.5864 2204.386 557.87616 7.626908e-15
3.0671654e-15 7.348391e-11 8.5703805e-12 1.617995e-11 0.24804297 0.39066166 5319.581 5001.92
2026.6323 0.18432781 0.21294206 3502.5825 2715.4004 993.7053

exp_avg f4 [30]
00000000: 1611 a2bb befa 1dbc 0000 0000 1233 70bc
00000010: edc6 c5bc 0000 0000 45f8 d2bc 0000 0000
00000020: b85a 0bbc 6b72 f8bc bccc bbbc 388f d7bc
00000030: e378 2bbc 829e 31bc deb8 b2bc 9925 7fbc
00000040: 4ab4 2dbb bc71 92bc 32fc c0bc 0000 0000
00000050: ad3c 05bd 4ee1 993b 9e84 34bc f468 96bc
00000060: 547d 9e3c ea7a 2bb7 51e8 adbc af15 45b7
00000070: 201a ccbc c101 cbbc
-0.0049458845 -0.009642301 0.0 -0.014660614 -0.024142707 0.0 -0.02575315 0.0
-0.008505516 -0.030327996 -0.022924773 -0.02631341 -0.010465833 -0.010841014 -0.021816667 -0.015572929
-0.0026505166 -0.017876498 -0.023557756 0.0 -0.032528568 0.004696048 -0.0110179465 -0.018360592
0.01934687 -1.0221012e-05 -0.021228941 -1.1747164e-05 -0.024914801 -0.02478111

exp_avg_sq f4 [30]
00000000: 363a a83b a5ba f13b 0000 0000 1f1f 0b3c
00000010: 51bd 6a3c 0000 0000 7dea ce3c 0000 0000
00000020: a40c b63b 97e4 8e3c 7fd2 5d3c 5dcb 5d3c
00000030: 1fcd 063c f61e db3b fab2 e83c 7f88 e23b
00000040: 8aa0 3d3b 7a33 3e3c 339d 5a3c 0000 0000
00000050: 33d3 713c e168 673c 76bf f13b fa0b 1e3c
00000060: bc5b 563d 9135 0736 4b24 3d3c 36fe 3436
00000070: 0339 f73c eba0 883c
0.0051338924 0.007376986 0.0 0.008491307 0.014327363 0.0 0.025258297 0.0
0.005555706 0.017442985 0.013538956 0.013537255 0.008227616 0.0066870404 0.028405655 0.0069132443
0.00289348 0.011608953 0.013343143 0.0 0.0147598265 0.014124126 0.0073775603 0.00964641
0.05233358 2.0147747e-06 0.011544297 2.697006e-06 0.030178552 0.016678294

exp_avg f4 [5, 30]
00000000: 179e 2ac1 5695 01c1 0000 0000 5724 24c1
00000010: 5757 17c1 0000 0000 4e15 4bc1 0000 0000
00000020: c38f 0ac1 d00c 1dc1 2057 29c1 dbd2 17c1
00000030: 6637 0ec1 c6aa 02c1 0e95 2bc1 85e4 3fc1
00000040: 8441 00c1 4407 23c1 6536 16c1 0000 0000
00000050: 91d5 19c1 1345 04c1 7040 2ac1 93b2 1cc1
00000060: a0fa 01c1 c5f7 59b7 e023 16c1 d06d 3cb7
00000070: ee31 3bc1 e87b 16c1 e5ee 5441 814b 0a41
00000080: 0000 0000 2113 2741 3e65 ed40 0000 0000
00000090: 4f2d 5b40 0000 0000 55c3 3441 03a3 fe40
000000a0: 064d 0441 41d2 e940 e465 1841 3bb2 1941
000000b0: 8ef8 0e40 fe0b 4041 a59e 5141 aa45 0b41
000000c0: 234e 0541 0000 0000 3d4d bf3f cda1 d7be
000000d0: 92bf 3d41 cbd6 0241 f1c4 93bf 0400 0000
000000e0: 9178 1241 0000 0000 0bd9 4340 538d da40
000000f0: e613 46c1 7bf6 24c1 0000 0000 47dc 27c1
00000100: 468b 1bc1 0000 0000 2bb8 fdc0 0000 0000
00000110: 895f 10c1 6bea f5c0 b0d7 2ec1 8483 fcc0
00000120: 778e 38c1 9ec0 21c1 f23a 0dc1 8261 4ec1
00000130: 1290 4bc1 54af 35c1 dfcc 04c1 0000 0000
00000140: bbe4 16c1 f665 26c1 cf4e 39c1 d083 26c1
00000150: b24c 1dc1 0000 0000 326a 00c1 0400 0080
00000160: 4b6d dec0 2aa4 09c1 29ea e1be 988a 093f
00000170: 0000 0000 9a4e 5d3e a850 823f 0000 0000
00000180: 114b 36bf 0000 0000 8bfd 30bf ccfe af3e
00000190: 62bc 8f3f 7db0 283f e5b1 223f 604b 383e
000001a0: 64b9 e0be 0aef df3e 4134 edbe 759e 843f
000001b0: 908e ac3e 0000 0000 6cdf 25be 0621 76bf
000001c0: c724 7cbd 1fa2 6f3f f620 72bf 0000 0000
000001d0: bc6c f1bb 0000 0000 3f93 20bf 9d10 613f
000001e0: 74a4 3bc0 d30f 2cc0 0000 0000 4ce8 28c0
000001f0: 570f 29c0 0000 0000 34fa 07c0 0000 0000
00000200: 93d6 01c0 8e67 fbbf afc0 3ec0 27fa 05c0
00000210: d9e9 40c0 b620 22c0 8fb8 19c0 3199 52c0
00000220: 3964 42c0 bd11 44c0 bb3b 08c0 0000 0000
00000230: e8e2 22c0 3c5f 1bc0 285b 35c0 b913 34c0
00000240: 8d4a 21c0 0000 0000 dcbf fbbf 0000 0000
00000250: 4dc2 f0bf dd59 15c0
-10.663596 -8.098959 0.0 -10.258872 -9.458823 0.0 -12.692701 0.0
-8.660098 -9.815628 -10.583771 -9.488978 -8.888525 -8.166693 -10.72389 -11.993291
-8.015995 -10.189274 -9.38828 0.0 -9.61464 -8.266864 -10.640732 -9.793597
-8.123688 -1.2991896e-05 -9.383759 -1.1231241e-05 -11.69969 -9.405251 13.308324 8.643434
0.0 10.44217 7.4186087 0.0 3.4246404 0.0 11.2976885 7.957399
8.268805 7.3069158 9.524876 9.606013 2.2339206 12.002928 13.101232 8.704508
8.331576 0.0 1.4945446 -0.42115632 11.85927 8.17744 -1.1544477 6e-45
9.154435 0.0 3.0601223 6.8297515 -12.379858 -10.310176 0.0 -10.491279
-9.721502 0.0 -7.9287314 0.0 -9.023324 -7.6848655 -10.927658 -7.891054
-11.534781 -10.109526 -8.826891 -12.898806 -12.722673 -11.355305 -8.300017 0.0
-9.430842 -10.399893 -11.58174 -10.407181 -9.831224 0.0 -8.025927 -6e-45
-6.9508414 -8.602579 -0.44123963 0.537271 0.0 0.21612015 1.0180864 0.0
-0.7120829 0.0 -0.69136876 0.34374082 1.1229365 0.658943 0.63552696 0.17997503
-0.43891442 0.4373706 -0.4632893 1.0360857 0.33702517 0.0 -0.1619851 -0.9614414
-0.06155851 0.9360675 -0.94581544 0.0 -0.0073676985 0.0 -0.6272468 0.87915975
-2.9319124 -2.6884658 0.0 -2.6391783 -2.6415613 0.0 -2.1246462 0.0
-2.0287216 -1.9640977 -2.9805105 -2.093393 -3.014273 -2.5332465 -2.4018896 -3.2906
-3.037367 -3.0635827 -2.1286457 0.0 -2.5450993 -2.4276876 -2.8336887 -2.8137038
-2.5201752 0.0 -1.9667926 0.0 -1.8809296 -2.3336098

exp_avg_sq f4 [5, 30]
00000000: 4a6d c544 9750 2f44 0000 0000 d959 9344
00000010: 4726 3a44 0000 0000 00cc 5a44 0000 0000
00000020: cc5b 9544 aa24 6b44 a4f9 6b44 823a 4f44
00000030: ffbf 5144 5a69 4844 e2a8 2244 ff26 c144
00000040: 7392 8f44 ed9d 6744 41e8 6144 0000 0000
00000050: 22ba 1144 f9cc 8d43 b03c ac44 551c 5844
00000060: 1d05 8343 434d 5f36 850b 8244 dec3 2436
00000070: d9e8 3544 ad01 3a44 9bce c244 cfd4 e743
00000080: 0000 0000 64ae 4144 9f0d a043 0000 0000
00000090: 6024 0943 0000 0000 85cc 9044 944b eb43
000000a0: 7a18 c443 3529 a843 048c 0b44 7f79 2044
000000b0: e1d6 d242 8b68 7c44 efab a744 1024 db43
000000c0: f303 ee43 0000 0000 f952 e642 f67e 4742
000000d0: 1510 8c44 3dc5 c243 c926 7442 b432 372d
000000e0: 4f89 1d44 0000 0000 c5ad e442 aea9 8443
000000f0: 1655 2245 df8a b744 0000 0000 1590 d044
00000100: a09b ad44 0000 0000 27fd 4744 0000 0000
00000110: f35d b044 d41a 7c44 df00 d844 d62c 6744
00000120: 5f94 e444 abf0 b744 484b 4244 561e 1d45
00000130: 99d4 0e45 518f e444 e20a 8544 0000 0000
00000140: 9523 5f44 3a78 2044 099a 0745 9134 c044
00000150: 0de7 1e44 0000 0000 9b88 8044 fec3 b22c
00000160: 5207 2544 eed5 8144 ddac 1244 2eb8 4043
00000170: 0000 0000 f6f0 8f43 1ef2 0843 0000 0000
00000180: 66be 9542 0000 0000 9f83 cc43 b72d 2643
00000190: fee0 2743 2cd5 f742 7cd9 6a43 1fa5 7b43
000001a0: a6a0 6d42 50b9 c243 a0a5 0344 5af4 3b43
000001b0: f4c9 2b43 0000 0000 6de0 7242 4de8 ee41
000001c0: ccaa d243 ae82 2243 35c1 0842 0000 0000
000001d0: 1e56 5843 0000 0000 d10e 7842 003c d642
000001e0: e54d b943 b4d7 2843 0000 0000 83d8 5b43
000001f0: 2946 1343 0000 0000 a4f4 8a42 0000 0000
00000200: a986 6543 4191 0743 9a94 3643 02d9 e242
00000210: 3305 5043 e8eb 3a43 6523 7d42 1d7c 9d43
00000220: 02d0 9e43 f7d5 4343 d9de 0b43 0000 0000
00000230: 740b 9942 4e19 3842 647f 9343 bc91 2743
00000240: 33ba 3d42 0000 0000 2568 1843 0000 0000
00000250: d369 6742 4f0a e342
1579.4153 701.2592 0.0 1178.8077 744.5981 0.0 875.1875 0.0
1194.8687 940.5729 943.90063 828.9142 838.99994 801.6461 650.6388 1545.2186
1148.5765 926.4676 903.62897 0.0 582.9083 283.60135 1377.8965 864.4427
262.03995 3.3274562e-06 1040.36 2.4551914e-06 727.63824 744.0262 1558.4564 463.66257
0.0 774.72485 320.1064 0.0 137.14209 0.0 1158.3912 470.59045
392.19122 336.32193 558.18774 641.8984 105.419685 1009.6335 1341.3729 438.28174
476.03085 0.0 115.162056 49.873985 1120.5026 389.54092 61.037876 1.0413604e-11
630.14545 0.0 114.33939 265.32562 2597.3179 1468.3397 0.0 1668.5026
1388.8633 0.0 799.9555 0.0 1410.9359 1008.4192 1728.0272 924.70056
1828.6366 1471.5209 777.1763 2513.896 2285.2874 1828.4786 1064.3401 0.0
892.55597 641.87854 2169.6272 1537.6427 635.61017 0.0 1028.2689 5.0808238e-12
660.1144 1038.6853 586.701 192.71945 0.0 287.8825 136.94577 0.0
74.87187 0.0 409.0283 166.17857 167.87888 123.91635 234.84955 251.645
59.406883 389.44775 526.5879 187.9545 171.78888 0.0 60.719166 29.863428
421.33435 162.51047 34.18868 0.0 216.3364 0.0 62.01447 107.11719
370.60855 168.84259 0.0 219.84575 147.27406 0.0 69.47781 0.0
229.52602 135.5674 182.58047 113.42384 208.02031 186.92151 63.284565 314.96964
317.62506 195.8358 139.8705 0.0 76.52237 46.02471 294.99524 167.56927
47.431835 0.0 152.40681 0.0 57.853344 113.520134

exp_avg f4 [5]
00000000: 12b5 a6bc 7244 143c 588e 773b 591e b8bb
00000010: 2b0c 60bb
-0.020350013 0.009049522 0.0037774052 -0.005618852 -0.003418694

exp_avg_sq f4 [5]
00000000: bf10 133b 760a 543b fa77 743b 7c27 9f3a
00000010: d95d e839
0.0022440401 0.0032354868 0.0037302957 0.0012142505 0.0004432041
