last_brain.pth (torch_old, 5782 bytes, 12 tensors)

fc1.weight f4 [30, 5]
0	0xc1a39fcb	-20.453024
1	0xc184bbdb	-16.591726
2	0xbf9c0557	-1.218913
3	0x4012c9c7	2.2935655
4	0xc04aa899	-3.1665404
5	0xbde8a57c	-0.11359689
6	0x40238726	2.5551238
7	0x3f3440c6	0.70411336
8	0x3f153df7	0.58297676
9	0x3fbc73ed	1.4722878
10	0xbead77eb	-0.33880553
11	0xc0b5c7d2	-5.680642
12	0x3f635114	0.8879559
13	0x3f4910e9	0.7854143
14	0x401cbbc4	2.4489603
15	0xbdfac54b	-0.12244662
16	0xc09178ab	-4.54598
17	0x3f63dab0	0.89005566
18	0x3ebdad9d	0.3704652
19	0x400f487f	2.2387998
20	0x3f0b305b	0.5437066
21	0x40091727	2.142038
22	0x3f286b95	0.6578916
23	0x3f34729a	0.7048737
24	0x3daeed26	0.08541326
25	0xbf1bb791	-0.60826975
26	0xc0c8e2c7	-6.277683
27	0x3f6b265c	0.91855407
28	0x3f3fdf28	0.74949884
29	0x403915d3	2.891957
30	0x3e96348e	0.2933697
31	0x3d91acd0	0.071130395
32	0xbee06cf7	-0.43833134
33	0xbe1aca28	-0.15116179
34	0xbe79acdb	-0.24382345
35	0xc20204ad	-32.504566
36	0x418b2452	17.392735
37	0xbfe0a2cf	-1.7549685
38	0xbf6315fc	-0.8870542
39	0x40303c18	2.7536678
40	0xbebcd894	-0.36883986
41	0xc0b447b1	-5.6337514
42	0x3eb69b20	0.35665226
43	0x3f6872ab	0.9079997
44	0x402950eb	2.6455638
45	0x3e7db0f0	0.24774528
46	0x3e090dd0	0.13384175
47	0xbecb40ae	-0.39697784
48	0xbe69fa6b	-0.22849433
49	0xbea83dde	-0.328597
50	0xbbd1be70	-0.0064008757
51	0xc0b0cde4	-5.525133
52	0x3e5311f7	0.20612322
53	0x3f64117b	0.89089173
54	0x4035c58f	2.840183
55	0xbe27468c	-0.16335505
56	0xbea232ec	-0.31679475
57	0xbea0c71f	-0.31401917
58	0xbe41f4d6	-0.18941054
59	0xbea38f54	-0.31945288
60	0x3e81670a	0.25273925
61	0xc0701322	-3.7511678
62	0x3f67fd0f	0.9062051
63	0x3f3b4f25	0.7316764
64	0xbc229823	-0.0099239675
65	0xc1018ec2	-8.097353
66	0xc0639d58	-3.5564785
67	0xbe2aaf2b	-0.16668384
68	0xbfb95115	-1.4477869
69	0x3f773684	0.9656756
70	0xbe3a861f	-0.18215226
71	0xc12bfe30	-10.7495575
72	0x3dcd7096	0.1003124
73	0x3e1f79f3	0.15573864
74	0x40574af3	3.3639495
75	0x3f3f8c4a	0.7482344
76	0xc1b23b8f	-22.279081
77	0xbeb3fb23	-0.3515254
78	0x3fc094f5	1.5045458
79	0xc01cff47	-2.453081
80	0xbf27ccff	-0.65547174
81	0xc10debab	-8.870036
82	0x3f83f1f6	1.0308216
83	0x3ee51d46	0.44748896
84	0x4045ca0e	3.0904574
85	0xbd8949e6	-0.06703548
86	0x411bc579	9.735711
87	0x3f05d239	0.522739
88	0x3f37cbc5	0.717953
89	0x3e5299b6	0.20566449
90	0x3f5141ef	0.8174123
91	0x40b6c736	5.7118177
92	0x3f7086ad	0.939555
93	0x3ec44def	0.3834071
94	0x3f87d40e	1.0611589
95	0xbd0cd507	-0.034382846
96	0x4046e42c	3.1076765
97	0x3ddf20ef	0.108949535
98	0x3f849a96	1.0359676
99	0x3fffae24	1.9975019
100	0xbeae28d8	-0.34015536
101	0xbe93a0c2	-0.28833586
102	0x3f6aca7c	0.91715217
103	0x3f743b31	0.9540282
104	0x3fdd1599	1.7272216
105	0x3ee6684b	0.45001444
106	0xc115c93d	-9.36163
107	0x3f68fe01	0.9101258
108	0x3f185319	0.59501797
109	0xbce6956e	-0.028147426
110	0xbea8ccb9	-0.3296869
111	0xc0f04718	-7.5086784
112	0x3e653969	0.22385181
113	0x3f4e0348	0.80473757
114	0x40522f3a	3.2841325
115	0xbef6be93	-0.48192272
116	0xc0d5f206	-6.685794
117	0x3f176b2c	0.59147906
118	0x3f5ef2a7	0.8708901
119	0x403c66f0	2.9437828
120	0xbf097b94	-0.5370419
121	0xc0c198f3	-6.0499206
122	0x3f5a543a	0.8528477
123	0x3f6dabfe	0.92840564
124	0x400d5eb0	2.2089043
125	0xbefd36b8	-0.4945581
126	0xc0e3e2bd	-7.121428
127	0x3edeeb40	0.43538857
128	0x3f5420cc	0.82862544
129	0x4021a472	2.525662
130	0xbdef72c8	-0.11691815
131	0x3ed7169a	0.4200943
132	0xbec55d1c	-0.385476
133	0xbee2070a	-0.44145995
134	0xbedd2584	-0.43192685
135	0xbef31da5	-0.47483554
136	0xc08e404b	-4.4453483
137	0x3f517d66	0.8183197
138	0x3f3e41d6	0.7431921
139	0x401d67ba	2.459456
140	0x3e024720	0.12722445
141	0x3e9915d4	0.29899466
142	0xbeabdddc	-0.33567703
143	0xbd853cec	-0.065057606
144	0xbead8bf6	-0.33895844
145	0xbe9eb02d	-0.30993786
146	0xc01858df	-2.3804243
147	0x3f783deb	0.9696948
148	0x3e8ada9d	0.27119914
149	0x400523f7	2.0803201

fc1.bias f4 [30]
0	0xc0a2d12a	-5.0880327
1	0x40d06069	6.511769
2	0x40dbbf21	6.867081
3	0x40e36d84	7.1071186
4	0xc08d8707	-4.422733
5	0x40f242a9	7.570637
6	0xbed78715	-0.42095247
7	0x403690e5	2.8525937
8	0x40e213a5	7.064898
9	0x3e1b31e4	0.1515575
10	0x40e93f14	7.28895
11	0x3e8ee878	0.27911735
12	0xc09eeaca	-4.966161
13	0x3ca7f38a	0.02050187
14	0x40ef6ac6	7.481784
15	0xc100e4ac	-8.055828
16	0x40df39b1	6.9757924
17	0xc0b1440a	-5.5395555
18	0x40b95bce	5.7924566
19	0x40d9d634	6.807398
20	0x40d169e4	6.544176
21	0xc0889d07	-4.2691684
22	0x40e2cff8	7.087887
23	0x40dc7b49	6.8900495
24	0x40e7481a	7.2275515
25	0x40e27a38	7.0774193
26	0x3e83045e	0.2558927
27	0x40f04a93	7.5091033
28	0xbe085908	-0.13315213
29	0x40d00676	6.5007887

fc2.weight f4 [5, 30]
0	0xc1263809	-10.38868
1	0x3ed38f44	0.4132024
2	0x3f1672e7	0.5876908
3	0x3f089691	0.53354746
4	0xbf24450f	-0.64167875
5	0x3f2e55ba	0.6809956
6	0xbdb557f6	-0.08854668
7	0x40ee0d10	7.4390945
8	0x3f0cde15	0.5502637
9	0x3cbaf858	0.022823498
10	0x3f25f8ad	0.64832574
11	0xbd4c7384	-0.04991485
12	0xbf201591	-0.6253291
13	0x3ebf2274	0.37330973
14	0x3fcb15b7	1.5866002
15	0xbf478479	-0.7793651
16	0x3f55572c	0.8333614
17	0xbf3e9850	-0.7445116
18	0x3e3ca5f4	0.18422681
19	0x3e4c173f	0.19930743
20	0x3eaff2d7	0.3436496
21	0xbee225ab	-0.44169363
22	0x3f87c3c0	1.0606613
23	0x3f487e4d	0.7831772
24	0x3eed9079	0.46399286
25	0x3f4bdd92	0.79634964
26	0x3d8b74f0	0.068094134
27	0x3f0bdca5	0.5463355
28	0xbdf566ab	-0.11982473
29	0x3efa59a1	0.48896506
30	0xc0203d91	-2.5037577
31	0x3f81e9d0	1.0149479
32	0x3f200080	0.6250076
33	0x3ef90c01	0.4864197
34	0xbf28fac0	-0.66007614
35	0x3f3b917d	0.7326887
36	0x3d3c8338	0.046023577
37	0x410625c4	8.38422
38	0x3f0d57e7	0.55212253
39	0xbe284993	-0.16434316
40	0x3f1a0637	0.60165733
41	0x3d933434	0.07187691
42	0xbf97d2be	-1.1861188
43	0x4044a553	3.0725906
44	0x3f282c4c	0.6569259
45	0xc100884e	-8.0332775
46	0x3f1692d5	0.588178
47	0xbb714a74	-0.003681806
48	0x3f44b013	0.7683117
49	0x3f5181db	0.8183877
50	0x3f25e31b	0.6479966
51	0xbfce940b	-1.6138929
52	0x3f4f27e9	0.80920273
53	0x3f3d88f6	0.7403711
54	0x3f00a954	0.50258374
55	0x3f218c7e	0.63105
56	0xbdad2943	-0.08455136
57	0x3f43ec6d	0.7653263
58	0xbe0790ea	-0.13238874
59	0x3f174dad	0.591029
60	0xc0af98e7	-5.487415
61	0x3f68b85d	0.90906316
62	0x3f1f3ac4	0.62199044
63	0x3f3acdb2	0.72970116
64	0xbfae3aed	-1.3611733
65	0x3f11b31b	0.5691392
66	0xbdb38934	-0.08766404
67	0x40e5ec4c	7.185095
68	0x3f5c482b	0.8604762
69	0xbe05cff2	-0.13067606
70	0x3f4b7796	0.7947935
71	0x3e0055fa	0.12532797
72	0xbfaa3979	-1.3298789
73	0x3fd6ea3a	1.679023
74	0x3f45d03c	0.77270865
75	0xc092cda1	-4.587601
76	0x3f229400	0.6350708
77	0xbea3e926	-0.32013816
78	0x3f60dc87	0.878365
79	0x3f3b9ca0	0.73285866
80	0x3f2e4b15	0.68083316
81	0xbfe391c4	-1.7778859
82	0x3f445047	0.76684994
83	0x3f21f61a	0.63266146
84	0x3f05ffe0	0.5234356
85	0x3f3f6fec	0.74780154
86	0xbe03317e	-0.12811849
87	0x3f1297f5	0.5726312
88	0xbdfc0423	-0.123054765
89	0x3f54216f	0.82863516
90	0xc0b87dc9	-5.7653546
91	0x3f2a1508	0.6643834
92	0x3f36d805	0.7142337
93	0x3efee4ee	0.49784034
94	0xbf979ea0	-1.1845284
95	0x3f5d9533	0.86555785
96	0x3dcf4bc4	0.10121873
97	0x40f18fb8	7.548794
98	0x3f386719	0.72032315
99	0xbd91d6e1	-0.07121063
100	0x3f59c985	0.8507312
101	0x3e23f75e	0.16012332
102	0xbf668e2f	-0.90060705
103	0x400daae6	2.2135558
104	0x3f32eee2	0.69895756
105	0xc0ae3d78	-5.4450035
106	0x3f18f250	0.5974474
107	0xbf7f2043	-0.996586
108	0x3ee84ae0	0.45369625
109	0x3f696335	0.91167
110	0x3f0b7c32	0.5448638
111	0xbf4ce2a8	-0.8003335
112	0x3f40171d	0.7503527
113	0x3f307cef	0.68940634
114	0x3f319324	0.69365144
115	0x3f1c5306	0.61064184
116	0x3e32e3f4	0.1746977
117	0x3f3a51bb	0.7278096
118	0xbdcf05e5	-0.10108546
119	0x3f04cc93	0.51874655
120	0xc0ce4135	-6.44546
121	0x3f0a33e6	0.5398544
122	0x3f076ee7	0.529036
123	0x3ecc498e	0.39899868
124	0xbf94d430	-1.1627254
125	0x3f34e1f5	0.70657283
126	0x3ded5348	0.1158815
127	0x40fae159	7.8400083
128	0x3f5314dd	0.8245371
129	0xbdffa45b	-0.1248252
130	0x3f64b981	0.89345556
131	0x3e017240	0.12641239
132	0xbeefcccb	-0.46835932
133	0xbf102d1c	-0.5631883
134	0x3f7eca74	0.9952767
135	0xc08ec26d	-4.4612336
136	0x3f3977a8	0.72448206
137	0xbfa1d963	-1.2644466
138	0x3f218776	0.6309732
139	0x3f41a146	0.7563671
140	0x3edfe967	0.4373276
141	0xbf18efe8	-0.5974107
142	0x3f44889d	0.76770955
143	0x3f219045	0.6311076
144	0x3f08f912	0.5350505
145	0x3f3bbdba	0.73336375
146	0x3e2a5e5a	0.16637555
147	0x3f5443a3	0.82915705
148	0x3e094190	0.13403916
149	0x3ebddb9d	0.37081614

fc2.bias f4 [5]
0	0x409edf6c	4.964773
1	0x40997b53	4.796304
2	0x40013c61	2.0193102
3	0x40407b3c	3.0075216
4	0x400d6cad	2.209758

exp_avg f4 [30, 5]
0	0x3f1ff7b4	0.6248734
1	0x3fa6b80c	1.3024917
2	0x429cabec	78.335785
3	0x42ddcc4a	110.899
4	0x4203acf9	32.91892
5	0xc84904fb	-205843.92
6	0xbd938878	-0.07203764
7	0xc84906f6	-205851.84
8	0xc106cc94	-8.424946
9	0xbfcf125b	-1.6177477
10	0xc890a4aa	-296229.3
11	0x3d00ed5d	0.031476367
12	0xc890a552	-296234.56
13	0xc0beaff1	-5.958977
14	0xbf46f268	-0.7771363
15	0xc882eadd	-268118.9
16	0x3ce5b989	0.028042572
17	0xc882eb82	-268124.06
18	0xc0c0b487	-6.022037
19	0xbf47d39d	-0.7805727
20	0x48a66b75	340827.66
21	0xbd651b13	-0.055934023
22	0x48a66d49	340842.28
23	0x41657e89	14.343392
24	0x40688376	3.6330237
25	0xc8a85553	-344746.6
26	0x3d30fd11	0.043210093
27	0xc8a85601	-344752.03
28	0xc0c1f25f	-6.0608363
29	0xbf3ae6e1	-0.73008543
30	0x00000000	0.0
31	0x00000000	0.0
32	0x00000000	0.0
33	0x00000000	0.0
34	0x00000000	0.0
35	0x3fd7d3d6	1.6861522
36	0xbeb52a97	-0.35384056
37	0xbecc835a	-0.39943963
38	0x4119d639	9.6148
39	0x41908fbe	18.070187
40	0x3d81c70a	0.06336792
41	0x3d1fc2bd	0.039004076
42	0xc1019af8	-8.100334
43	0xc1082118	-8.50808
44	0xbfe0ad33	-1.7552856
45	0x00000000	0.0
46	0x00000000	0.0
47	0x00000000	0.0
48	0x00000000	0.0
49	0x00000000	0.0
50	0xc8a033f0	-328095.5
51	0x3d6bf404	0.05760576
52	0xc8a034e6	-328103.2
53	0xc103e25a	-8.242762
54	0xbfc7b87a	-1.5603173
55	0x00000000	0.0
56	0x00000000	0.0
57	0x00000000	0.0
58	0x00000000	0.0
59	0x00000000	0.0
60	0x48a24944	332362.12
61	0x3d85213e	0.06500481
62	0x48a24aa4	332373.12
63	0x413aa29d	11.6647005
64	0x40082f71	2.1278956
65	0x3e7242d6	0.23658308
66	0x3dd67112	0.10470785
67	0xc08182ba	-4.047208
68	0xbeb5854d	-0.35453263
69	0xc0774f23	-3.8642051
70	0xbe2b5f44	-0.1673556
71	0x3e50c30f	0.20386909
72	0xbf8b3568	-1.0875673
73	0xc0931969	-4.596852
74	0x3fca9790	1.5827503
75	0x48c951ab	412301.34
76	0x3fbedb8a	1.4910748
77	0x48c95912	412360.56
78	0x42c259a8	97.17511
79	0x420a9387	34.64407
80	0xc8ced396	-423580.7
81	0x3da01d64	0.07818106
82	0xc8ced40b	-423584.34
83	0xc0a6f4f9	-5.217404
84	0xbd8d47d1	-0.068984635
85	0x48c07d79	394219.78
86	0xbe4dce13	-0.20098142
87	0x48c07e36	394225.7
88	0x40bb3f9f	5.8515162
89	0x3fa533bc	1.2906413
90	0xc7aa2224	-87108.28
91	0xbd9fb01d	-0.07797263
92	0xc7aa266d	-87116.85
93	0xc107d4e4	-8.489475
94	0xc00a96d3	-2.1654556
95	0xc7bdeeac	-97245.34
96	0xbd5b1b32	-0.053492732
97	0xc7bdf3ad	-97255.35
98	0xc112219e	-9.133207
99	0xc02980b5	-2.6484807
100	0xc825d95d	-169829.45
101	0xbcd7bf35	-0.026336292
102	0xc825dae5	-169835.58
103	0xc0ce6f69	-6.4511
104	0xbfa3af43	-1.2787861
105	0x4867aca8	237234.62
106	0x3e382e9a	0.17986527
107	0x4867b05d	237249.45
108	0x4176bbdb	15.420863
109	0x4056960b	3.352908
110	0x3bccd155	0.0062505403
111	0x3db036ec	0.086042255
112	0xc0787726	-3.8822722
113	0xc0bfbb90	-5.991646
114	0x3e4dc99e	0.20096442
115	0xc8c2a826	-398657.2
116	0x3d4000ed	0.046875883
117	0xc8c2a8a4	-398661.12
118	0xc0ae6414	-5.4497166
119	0xbe393dcd	-0.18089981
120	0xc862e8b2	-232354.78
121	0x3d03cd43	0.032178175
122	0xc862ea08	-232360.12
123	0xc0b364a2	-5.6060343
124	0xbf7ff202	-0.9997865
125	0x3c9a9a2f	0.018872349
126	0x3d80bee9	0.06286413
127	0xc099b966	-4.8038816
128	0xc0c7dfcd	-6.2460694
129	0xbedbbd78	-0.4291799
130	0x00000000	0.0
131	0x00000000	0.0
132	0x00000000	0.0
133	0x00000000	0.0
134	0x00000000	0.0
135	0xc8864237	-274961.72
136	0x3c33607a	0.010948295
137	0xc88642ef	-274967.47
138	0xc0c8c966	-6.274585
139	0xbf8421a2	-1.0322764
140	0x00000000	0.0
141	0x00000000	0.0
142	0x00000000	0.0
143	0x00000000	0.0
144	0x00000000	0.0
145	0xc86f5059	-245057.39
146	0x3a880fd8	0.0010380698
147	0xc86f51d9	-245063.39
148	0xc0dcf0dd	-6.9044023
149	0xbf891e45	-1.0712363

exp_avg_sq f4 [30, 5]
0	0x402eb300	2.7296753
1	0x40ec8503	7.391237
2	0x4747ecd5	51180.832
3	0x47800491	65545.13
4	0x4573901b	3897.0066
5	0x75aa7bde	4.3222793e+32
6	0x3d896372	0.06708421
7	0x75aa7bde	4.3222793e+32
8	0x44752199	980.52496
9	0x43abfcd6	343.97528
10	0x762e7cd7	8.847575e+32
11	0x3d43c8f2	0.04779906
12	0x762e7cd7	8.847575e+32
13	0x442db5f8	694.84326
14	0x434960d8	201.3783
15	0x760f2cc4	7.259828e+32
16	0x3d19b66b	0.037527483
17	0x760f2cc4	7.259828e+32
18	0x44044d22	529.2052
19	0x4310c56b	144.77116
20	0x765c8a44	1.11827116e+33
21	0x3dc29022	0.095001474
22	0x765c8a44	1.11827116e+33
23	0x44b37df9	1435.9366
24	0x43cbaa0c	407.3285
25	0x766c0f10	1.1969605e+33
26	0x3d82a68a	0.06379421
27	0x766c0f10	1.1969605e+33
28	0x4467d95e	927.39636
29	0x438713eb	270.1556
30	0x00000000	0.0
31	0x00000000	0.0
32	0x00000000	0.0
33	0x00000000	0.0
34	0x00000000	0.0
35	0x405dd001	3.4658206
36	0x3f7c0ee9	0.9846025
37	0x45e34e2b	7273.771
38	0x468072eb	16441.459
39	0x465f0f8e	14275.889
40	0x70598047	2.692533e+29
41	0x3d50da34	0.050989345
42	0x70598047	2.692533e+29
43	0x443ac3e5	747.06085
44	0x43507b49	208.48158
45	0x00000000	0.0
46	0x00000000	0.0
47	0x00000000	0.0
48	0x00000000	0.0
49	0x00000000	0.0
50	0x7656e88f	1.0897152e+33
51	0x3d80e8ac	0.06294379
52	0x7656e88f	1.0897152e+33
53	0x4460ce90	899.22754
54	0x4378cbaf	248.79564
55	0x00000000	0.0
56	0x00000000	0.0
57	0x00000000	0.0
58	0x00000000	0.0
59	0x00000000	0.0
60	0x7651a23d	1.0629694e+33
61	0x3de81202	0.1133156
62	0x7651a23d	1.0629694e+33
63	0x44d5893e	1708.2888
64	0x440e5a69	569.41266
65	0x3d922099	0.07135124
66	0x3ce93639	0.028468238
67	0x444c1553	816.3332
68	0x4297613e	75.689926
69	0x442fc764	703.1155
70	0x633828b3	3.3971336e+21
71	0x3e828a9c	0.25496376
72	0x633828b3	3.3971336e+21
73	0x4522f3b6	2607.232
74	0x440bf065	559.75616
75	0x76a24d86	1.6459462e+33
76	0x405271bd	3.288192
77	0x76a24d86	1.6459462e+33
78	0x46ecbbc5	30301.885
79	0x456af8f3	3759.5593
80	0x76b12687	1.7965195e+33
81	0x3d9adebc	0.075620145
82	0x76b12687	1.7965195e+33
83	0x446e277b	952.6169
84	0x436ebeb3	238.74492
85	0x76943799	1.5031008e+33
86	0x3db3ab59	0.08772916
87	0x76943799	1.5031008e+33
88	0x4453ce88	847.22705
89	0x43409563	192.58354
90	0x747f995b	8.100257e+31
91	0x3d2df151	0.042466465
92	0x747f995b	8.100257e+31
93	0x440fd63e	575.34753
94	0x4348c6c9	200.7765
95	0x74ac0e9c	1.0905412e+32
96	0x3d57f128	0.05272022
97	0x74ac0e9c	1.0905412e+32
98	0x4439458b	741.0866
99	0x4382f385	261.9025
100	0x756a108b	2.9671216e+32
101	0x3d043ead	0.032286335
102	0x756a108b	2.9671216e+32
103	0x43f51fbd	490.24796
104	0x43218f2e	161.5593
105	0x75d3eaf6	5.372755e+32
106	0x3e3bdaee	0.18345234
107	0x75d3eaf6	5.372755e+32
108	0x451a6859	2470.5217
109	0x445ddef3	887.4836
110	0x632c6106	3.1798313e+21
111	0x3df9c5b7	0.12195914
112	0x632c6106	3.1798313e+21
113	0x44c47df4	1571.936
114	0x43c9d4e3	403.66318
115	0x769f01dd	1.6125254e+33
116	0x3d95f772	0.07322587
117	0x769f01dd	1.6125254e+33
118	0x447e7a10	1017.9072
119	0x438cd1e1	281.63968
120	0x75d92b0c	5.5058668e+32
121	0x3d07b4ec	0.033131525
122	0x75d92b0c	5.5058668e+32
123	0x43f347df	486.5615
124	0x430dfff1	141.99977
125	0x61bf042a	4.4045352e+20
126	0x3d97d822	0.07414271
127	0x61bf042a	4.4045352e+20
128	0x4475c852	983.13
129	0x437f8323	255.51225
130	0x00000000	0.0
131	0x00000000	0.0
132	0x00000000	0.0
133	0x00000000	0.0
134	0x00000000	0.0
135	0x76170d3a	7.6592294e+32
136	0x3d57e57e	0.052709095
137	0x76170d3a	7.6592294e+32
138	0x4449775e	805.8651
139	0x437a2bf3	250.17168
140	0x00000000	0.0
141	0x00000000	0.0
142	0x00000000	0.0
143	0x00000000	0.0
144	0x00000000	0.0
145	0x75f00064	6.0847616e+32
146	0x3d208979	0.039193604
147	0x75f00064	6.0847616e+32
148	0x44129dc3	586.465
149	0x432d1564	173.08356

exp_avg f4 [30]
0	0x3e9d69ac	0.30744684
1	0xbd05ba2e	-0.032648258
2	0xbce8d7a5	-0.02842314
3	0xbcd5351f	-0.026026307
4	0x3d571797	0.05251273
5	0xbd006495	-0.031345922
6	0x00000000	0.0
7	0x3ca76475	0.020433644
8	0xbd0be16d	-0.03415053
9	0x00000000	0.0
10	0xbd12c960	-0.035836577
11	0x00000000	0.0
12	0x3d37a3d8	0.044833988
13	0xbbee1347	-0.0072654816
14	0xbd216001	-0.039398197
15	0x3e6b2748	0.22964203
16	0xbcf1daf8	-0.029523358
17	0x3d00426f	0.031313356
18	0xbce5125b	-0.027962854
19	0xbd059415	-0.032611925
20	0xbccecfbb	-0.025245538
21	0x3d54c3cc	0.05194454
22	0xbd133d47	-0.03594711
23	0xbcf762ca	-0.030198473
24	0xbcd0c364	-0.025483795
25	0xbd019619	-0.031637285
26	0x00000000	0.0
27	0xbcf1d1c0	-0.029518962
28	0x00000000	0.0
29	0xbce42f5a	-0.02785461

exp_avg_sq f4 [30]
0	0x3e967302	0.2938462
1	0x3bafdd7f	0.0053669806
2	0x3b85aa02	0.0040791044
3	0x3b4d6d1f	0.0031345559
4	0x3c093803	0.008375171
5	0x3bb26227	0.0054438296
6	0x00000000	0.0
7	0x3de7ef61	0.11324955
8	0x3b8f7546	0.0043779938
9	0x00000000	0.0
10	0x3baddd72	0.0053059394
11	0x00000000	0.0
12	0x3c1ce8ad	0.009576959
13	0x3bab0908	0.0052195825
14	0x3c861623	0.016367977
15	0x3dd828e2	0.10554673
16	0x3bbd5cc1	0.0057788794
17	0x3bab296c	0.0052234437
18	0x3b4b4b8a	0.0031020367
19	0x3b84672b	0.004040619
20	0x3b33cbcb	0.0027434702
21	0x3c5aa78b	0.013345609
22	0x3c1bf825	0.0095196115
23	0x3bc6368e	0.006048984
24	0x3b3ac4ec	0.0028498722
25	0x3bc1b17d	0.005911051
26	0x00000000	0.0
27	0x3b96ea20	0.0046055466
28	0x00000000	0.0
29	0x3b5eb622	0.0033983071

exp_avg f4 [5, 30]
0	0x4007b84d	2.1206238
1	0xc88d4cd0	-289382.5
2	0xc882ca49	-267858.28
3	0xc8ba0bb7	-381021.72
4	0xc91c139e	-639289.9
5	0xc80cc03e	-144128.97
6	0x00000000	0.0
7	0xbffd97a0	-1.9811897
8	0x414923d1	12.571244
9	0x00000000	0.0
10	0xc7a9bf66	-86910.8
11	0x00000000	0.0
12	0xc916af17	-617201.44
13	0xbea6c7ea	-0.32574397
14	0x411c8224	9.781773
15	0xc8592755	-222365.33
16	0xc82d9d2d	-177780.7
17	0xc876fe28	-252920.62
18	0xc95a3cfc	-893903.75
19	0xc6b4b39a	-23129.8
20	0xc889e9cf	-282446.47
21	0xc930245d	-721477.8
22	0x4150dfb8	13.054619
23	0xc71d22dc	-40226.86
24	0xc80fa570	-147093.75
25	0x4143509c	12.20718
26	0x00000000	0.0
27	0xc81d97b4	-161374.81
28	0x00000000	0.0
29	0xc89ec880	-325188.0
30	0xbce9318c	-0.028466009
31	0x3fcf8827	1.6213425
32	0x4075a459	3.838156
33	0x405ac85a	3.4184785
34	0x3f7796e4	0.96714616
35	0x40854287	4.164371
36	0x00000000	0.0
37	0xbfad95b6	-1.3561313
38	0x4053f39a	3.3117433
39	0x00000000	0.0
40	0x40543145	3.3155072
41	0x00000000	0.0
42	0x4007ec64	2.1238031
43	0xbf3f0b34	-0.7462647
44	0x4080bcfc	4.0230694
45	0x40841333	4.1273437
46	0x4097488e	4.727607
47	0xbf07600f	-0.5288095
48	0x3faaa025	1.3330122
49	0x3fa5cbd7	1.2952832
50	0x4026b1f1	2.6046107
51	0x404267b1	3.0375788
52	0x4074574b	3.817828
53	0x407b4d8c	3.926608
54	0x406cf2ee	3.7023273
55	0x4060cfbb	3.5126789
56	0x00000000	0.0
57	0x405ffe40	3.4998932
58	0x00000000	0.0
59	0x403e86ae	2.9769702
60	0xc097d51b	-4.744764
61	0xc1531a52	-13.193926
62	0xc1907d6c	-18.061241
63	0xc167b09b	-14.480617
64	0xc129c05b	-10.609462
65	0xc197df16	-18.983929
66	0x00000000	0.0
67	0xbdb71305	-0.089391746
68	0xc1753d18	-15.327415
69	0x00000000	0.0
70	0xc1672440	-14.44635
71	0x00000000	0.0
72	0xc145f386	-12.371954
73	0xbf218934	-0.6309998
74	0xc110888d	-9.033338
75	0xc08bed66	-4.3727293
76	0xc18f2c66	-17.896679
77	0xc121dda7	-10.116614
78	0xc149ee72	-12.620714
79	0xc1534cc0	-13.206238
80	0xc1913800	-18.152344
81	0xc132ed2e	-11.182905
82	0xc16d87b3	-14.84563
83	0xc18bcdec	-17.475548
84	0xc192faae	-18.372402
85	0xc170b95b	-15.045253
86	0x00000000	0.0
87	0xc18a2f08	-17.272964
88	0x00000000	0.0
89	0xc160c443	-14.047915
90	0xc009028a	-2.14078
91	0xc1016e2f	-8.0894
92	0xc13c7a6b	-11.779887
93	0xc11f3295	-9.949849
94	0xc0bc4a3f	-5.8840632
95	0xc14958cd	-12.58418
96	0x00000000	0.0
97	0x3f35df7d	0.7104414
98	0xc11babdb	-9.729457
99	0x00000000	0.0
100	0xc11307b5	-9.189382
101	0x00000000	0.0
102	0xc0ed63b8	-7.4184227
103	0xbf1f1793	-0.62145346
104	0xc0e6c057	-7.210979
105	0xc0328591	-2.7894022
106	0xc1493577	-12.575553
107	0xc0a0b3ff	-5.021972
108	0xc0f8fae2	-7.7806253
109	0xc0eb8d40	-7.3609924
110	0xc130fa6a	-11.061136
111	0xc0e739d1	-7.2258077
112	0xc11d07f5	-9.814443
113	0xc13612ce	-11.379591
114	0xc13b963b	-11.724177
115	0xc11c07d8	-9.751915
116	0x00000000	0.0
117	0xc133b852	-11.2325
118	0x00000000	0.0
119	0xc11a65e1	-9.649873
120	0xbf0813c5	-0.53155166
121	0xc08434fa	-4.131467
122	0xc0c3d627	-6.1198916
123	0xc0a38b17	-5.1107287
124	0xc0370fa8	-2.8603306
125	0xc0d2a1c2	-6.582246
126	0x00000000	0.0
127	0x3ea39c5a	0.31955224
128	0xc0aa4999	-5.321484
129	0x00000000	0.0
130	0xc0a47507	-5.1392856
131	0x00000000	0.0
132	0xc061ce78	-3.5282269
133	0xbd9f1920	-0.07768464
134	0xc085cfd8	-4.1816216
135	0xbf1d7181	-0.6150132
136	0xc0d12395	-6.5355935
137	0xc01ef0a0	-2.4834366
138	0xc0738db5	-3.805524
139	0xc083ea18	-4.122326
140	0xc0b486d3	-5.641458
141	0xc05a751d	-3.413398
142	0xc0b06c64	-5.5132313
143	0xc0c3cb1c	-6.1185436
144	0xc0c27a2e	-6.0774145
145	0xc0a8d001	-5.275391
146	0x00000000	0.0
147	0xc0bb8c38	-5.8608665
148	0x00000000	0.0
149	0xc09c70fd	-4.8887925

exp_avg_sq f4 [5, 30]
0	0x435d506f	221.3142
1	0x762aee24	8.667193e+32
2	0x7612d6c0	7.445615e+32
3	0x7692210b	1.4819249e+33
4	0x7741b925	3.9291737e+33
5	0x75325b02	2.2609246e+32
6	0x00000000	0.0
7	0x413e82e9	11.9069605
8	0x6c1898d2	7.379136e+26
9	0x00000000	0.0
10	0x748afd8e	8.809566e+31
11	0x00000000	0.0
12	0x77347260	3.6598954e+33
13	0x3f3326dc	0.6998117
14	0x5b7a0b25	7.0380998e+16
15	0x75b48b5d	4.577344e+32
16	0x7584e7f2	3.3695683e+32
17	0x75eb3d31	5.964018e+32
18	0x77c50bc0	7.993131e+33
19	0x730298e2	1.0346976e+31
20	0x76233b72	8.276856e+32
21	0x77777334	5.0188825e+33
22	0x5d502b5f	9.375117e+17
23	0x7390f230	2.2967618e+31
24	0x7539e344	2.3564073e+32
25	0x5a2d899e	1.2211621e+16
26	0x00000000	0.0
27	0x755d674a	2.8066225e+32
28	0x00000000	0.0
29	0x76566aeb	1.08722664e+33
30	0x42e240a0	113.12622
31	0x450235fd	2083.3743
32	0x458e284d	4549.0376
33	0x454117bd	3089.4836
34	0x443e7672	761.8507
35	0x45aa5cd0	5451.6016
36	0x00000000	0.0
37	0x43b97dd0	370.9829
38	0x4585fec6	4287.8467
39	0x00000000	0.0
40	0x4587e340	4348.4062
41	0x00000000	0.0
42	0x446d8ffb	950.2497
43	0x41b17bce	22.185452
44	0x45504469	3332.2756
45	0x42c6c907	99.39263
46	0x45a2e655	5212.7915
47	0x443e47df	761.123
48	0x44bcd708	1510.7197
49	0x453c6873	3014.528
50	0x4567463e	3700.3901
51	0x443e9eae	762.4794
52	0x459eecd5	5085.604
53	0x45a4420a	5256.255
54	0x4589f29c	4414.326
55	0x4578fcc7	3983.7986
56	0x00000000	0.0
57	0x458677ca	4302.9736
58	0x00000000	0.0
59	0x452ac5ed	2732.3704
60	0x42ada589	86.82331
61	0x44456b63	789.6779
62	0x44ca3109	1617.5323
63	0x448e87e4	1140.2466
64	0x43d0c8ed	417.56973
65	0x44e9b5ef	1869.6854
66	0x00000000	0.0
67	0x4109082a	8.564493
68	0x4499eaab	1231.3334
69	0x00000000	0.0
70	0x448f57cb	1146.7435
71	0x00000000	0.0
72	0x44124102	585.01575
73	0x406615f3	3.5950897
74	0x444469a6	785.65076
75	0x42d1ebfb	104.9609
76	0x44e4771c	1827.7222
77	0x43b5ace9	363.35086
78	0x442f119e	700.27527
79	0x4448674f	801.6142
80	0x44b4013f	1440.039
81	0x43fb7ad4	502.9596
82	0x44a4ef31	1319.4747
83	0x44c956f2	1610.717
84	0x44c70dbf	1592.4296
85	0x44951e7f	1192.953
86	0x00000000	0.0
87	0x44ba6c07	1491.3759
88	0x00000000	0.0
89	0x448507d7	1064.245
90	0x41fdd668	31.72969
91	0x44536107	845.51605
92	0x44dbcf77	1758.4833
93	0x449cce73	1254.4515
94	0x43bc7c90	376.97314
95	0x4500d2d3	2061.1765
96	0x00000000	0.0
97	0x40f650a5	7.6973443
98	0x44ad90e2	1388.5276
99	0x00000000	0.0
100	0x44a4c9a8	1318.3018
101	0x00000000	0.0
102	0x4400ee71	515.72565
103	0x3fd2bce9	1.6463901
104	0x4468b61d	930.8455
105	0x4210899e	36.13439
106	0x44fe14be	2032.6482
107	0x43aa3937	340.447
108	0x4435f7a0	727.86914
109	0x44624364	905.053
110	0x44bc726e	1507.5759
111	0x43dbb485	439.4103
112	0x44bf7262	1531.5745
113	0x44e18662	1804.1995
114	0x44d55888	1706.7666
115	0x44a6fd82	1335.9221
116	0x00000000	0.0
117	0x44cc30b9	1633.5226
118	0x00000000	0.0
119	0x4491bbb1	1165.8654
120	0x420994ff	34.395504
121	0x43bb823e	375.01752
122	0x44416204	773.5315
123	0x4405270f	532.6103
124	0x4348faee	200.9802
125	0x445e5990	889.3994
126	0x00000000	0.0
127	0x40ec1fcd	7.378882
128	0x44165d2a	601.4557
129	0x00000000	0.0
130	0x440c880b	562.1257
131	0x00000000	0.0
132	0x438d591d	282.6962
133	0x3ed75778	0.4205892
134	0x43b47453	360.90878
135	0x422e4873	43.57075
136	0x4455943b	854.3161
137	0x432da267	173.63438
138	0x43a30a00	326.07812
139	0x43c770b3	398.88046
140	0x442d3eec	692.98315
141	0x4374aa39	244.66493
142	0x44201753	640.36444
143	0x44423a08	776.90674
144	0x444023f4	768.56177
145	0x4411013a	580.01917
146	0x00000000	0.0
147	0x443201b6	712.02673
148	0x00000000	0.0
149	0x43f641a3	492.5128

exp_avg f4 [5]
0	0xbbba7abd	-0.005690901
1	0xbaf3f41f	-0.0018612182
2	0xbc922142	-0.017838124
3	0xbc625b3a	-0.013815695
4	0xbbc08819	-0.005875599

exp_avg_sq f4 [5]
0	0x3baaf8a4	0.0052176286
1	0x3b3981d3	0.002830614
2	0x3a9d05f1	0.001197992
3	0x3a92770a	0.0011174392
4	0x3a17363a	0.0005768273
