last_brain.pth (torch_old, 5790 bytes, 12 tensors)

fc1.weight f4 [30, 5]
000000 0f 3f 50 40 e7 89 58 bf 95 db a5 3d 0d 8b e6 bd
       3.2538488 -0.8458542 0.080985226 -0.112569906
000010 1b 61 8a 3e 16 0f ae 40 77 4a 1f c0 32 f7 a2 bd
       0.2702721 5.4393415 -2.48892 -0.07957305
000020 10 3b 85 3c 5e 17 9e 3d 02 be a4 3f f8 81 6a c0
       0.016263515 0.07719301 1.2870486 -3.6641827
000030 30 36 af be 76 4f b1 bd a7 16 90 3e 80 ca d0 c0
       -0.3422103 -0.08657734 0.28142282 -6.524719
000040 cf 26 90 40 e2 f5 c2 be 0e e5 62 3e f3 47 96 be
       4.5047374 -0.3807822 0.2215769 -0.29351768
000050 22 55 b3 3f cf 13 bc c0 27 d0 80 3d 2e 46 97 be
       1.4010355 -5.877418 0.06289702 -0.2954573
000060 12 3f 4c 3d 53 2b 91 40 6f 8f cd c0 9c 3c 24 be
       0.049864836 4.5365386 -6.423759 -0.16038746
000070 ce c5 85 3d 8b b2 30 be 80 9d 08 3c 30 c2 1b 3e
       0.06531869 -0.17255609 0.008338332 0.15210795
000080 7e e5 9c be 5e 0d 25 be c0 ed 12 bd cb 44 9e c0
       -0.3064384 -0.1611838 -0.035871267 -4.9458976
000090 ce d9 3f bf 18 04 25 3d 11 a6 71 3d 16 84 84 bb
       -0.7494172 0.040287107 0.058996264 -0.004044066
0000a0 ba 16 0c 40 79 12 b2 40 f0 58 16 3e 01 6a 83 3c
       2.1888871 5.564755 0.14682364 0.016041758
0000b0 62 f3 6b 3e 40 e9 44 3c 36 3c 25 be 44 04 aa be
       0.23042062 0.012018502 -0.1613625 -0.3320638
0000c0 a3 b0 8e be 12 b3 d8 be 62 62 6b bf fa f7 11 c1
       -0.27869138 -0.4232412 -0.91946995 -9.123041
0000d0 bc 37 ce 3c 8f 49 e9 3d 3a 90 68 be 20 8d e3 bd
       0.02517306 0.11390983 -0.22711268 -0.11110902
0000e0 0c e4 e0 3e a3 70 57 bc 91 20 90 be 37 29 f7 bd
       0.43923986 -0.013149413 -0.28149846 -0.12068408
0000f0 8a c1 ff c0 16 f3 36 c0 1a 01 63 3c a6 87 d4 3c
       -7.9923754 -2.8585868 0.013855243 0.025943588
000100 28 ee 63 bd e6 9d a9 40 e6 f6 38 bf 00 a9 ac 3d
       -0.055647045 5.3005247 -0.7225174 0.08430672
000110 d2 be d2 3c c9 fb 7c bd 78 4b b2 3e c0 79 29 bc
       0.025725756 -0.06176356 0.34823203 -0.010343969
000120 18 a9 bb be 02 b5 99 be e4 56 b9 be 30 55 5f 3e
       -0.36652446 -0.3002091 -0.36199105 0.2180984
000130 6e b1 a6 be 8e c0 76 be e0 3a 07 be 60 b5 62 bd
       -0.32557243 -0.24096891 -0.13206053 -0.055348754
000140 af 74 c4 bf b1 94 b1 40 a3 68 1e be cf 7e ce 3d
       -1.5348109 5.549401 -0.15469603 0.100827806
000150 45 43 24 3e b4 62 81 be e2 a1 07 c0 fd 5b 3e 3e
       0.16041286 -0.25270617 -2.1192555 0.18589778
000160 37 c4 bf 3d c0 2e 8f be 08 99 ed 3d f8 19 39 be
       0.09363597 -0.27965355 0.11601454 -0.18076313
000170 68 3b 2b be a4 65 10 be 5a 82 9d be 61 46 06 3f
       -0.1672188 -0.14101273 -0.30763513 0.5245114
000180 ed 4f e0 40 90 d4 ea 3d 27 81 3b 3d 69 09 ee bd
       7.0097566 0.11466324 0.045777466 -0.116228886
000190 cc 00 74 3e 84 1f ad 3e 9c 93 87 be e0 05 36 3c
       0.23828429 0.33813107 -0.26479805 0.011109799
0001a0 00 60 92 be 72 f7 17 bf f1 89 c4 40 f7 02 85 3c
       -0.28588867 -0.59361947 6.1418386 0.016236765
0001b0 9d bd 1f 3e 67 bb 9b be 99 2d 5a c0 9f 4c 1d c0
       0.15599675 -0.30416414 -3.409033 -2.4578016
0001c0 72 0d 95 bd 71 15 b4 3e 83 d1 f1 bd a9 09 8f 3d
       -0.07277955 0.35172608 -0.11807539 0.069842644
0001d0 77 a5 be 40 8e 0d 36 3e 2e a8 9c 3d 80 30 f3 bd
       5.9576983 0.17778608 0.07649265 -0.11874485
0001e0 35 c1 d0 3d ef e0 be c0 46 ea 66 3d f2 11 52 be
       0.10193101 -5.9649577 0.056375764 -0.20514658
0001f0 2f 38 1b 3c 84 0c fe bd a7 10 da be 30 86 33 bd
       0.009473844 -0.12404731 -0.4259083 -0.043829143
000200 ce ac 1e be 1e bf 9a be 79 a0 1f 3f a5 71 f4 bf
       -0.15495607 -0.30223936 0.62354237 -1.9097182
000210 a8 c9 87 be 5c 68 7a 3e fc 18 1d 3e 9f 2f 79 3f
       -0.2652104 0.24453872 0.15341562 0.9733829
000220 a2 0a 31 c0 a2 be 3e bd d0 30 de 3e f6 57 c9 be
       -2.766274 -0.04656852 0.43396616 -0.3932492
000230 5a 68 1f be f0 0e 5f 3e 04 71 d7 be 08 de e0 be
       -0.1556715 0.21783042 -0.42078412 -0.43919396
000240 aa e9 34 be 77 02 c8 c0 9a c1 c2 3f 3a 6d a9 bd
       -0.17667261 -6.250301 1.5215333 -0.082727864
000250 4b 19 e4 bd 91 6a 1b 3e
       -0.11137637 0.1517737

fc1.bias f4 [30]
000000 0a 03 f4 c0 a8 b3 e1 40 9c 42 6a c0 ec 70 cf 3e
       -7.625371 7.0531807 -3.6603155 0.4051584
000010 82 50 3c 3f a0 36 9a c0 a0 7b f1 bd 80 32 6d c0
       0.73560345 -4.819168 -0.11791158 -3.7062073
000020 67 a4 de 40 6e ba b9 3f b4 e0 dc c0 89 b9 b2 3f
       6.9575686 1.4510019 -6.9024296 1.3962871
000030 a9 ee f0 bf 26 08 e6 40 cd 32 19 bc 90 d9 a1 bd
       -1.8822833 7.1884947 -0.009350491 -0.07902825
000040 6b 64 c8 bf a3 a9 d1 c0 a5 79 99 3f a6 0d d4 40
       -1.5655645 -6.5519576 1.1990248 6.626666
000050 37 2e a4 3f 13 c4 37 40 d0 51 9e c0 a1 b9 88 40
       1.2826604 2.8713424 -4.947487 4.27266
000060 33 93 ce 3e 68 d9 d8 be 60 d9 61 40 62 cf 55 c0
       0.4034668 -0.42353368 3.5288925 -3.3407826
000070 01 6e 92 3f d8 33 dd 3e
       1.143982 0.43203616

fc2.weight f4 [5, 30]
000000 fc 6b ff be 4b e7 8e 3f bc 9d 86 be e7 dc 30 3f
       -0.49887073 1.1164335 -0.26292217 0.6908707
000010 ae bd 42 bf 99 a0 6c bf 70 4c 4d bd 07 1a a1 be
       -0.7607068 -0.9243255 -0.050121725 -0.3146517
000020 22 93 ac 3e 3f 31 97 3f c1 83 59 3f b6 87 92 3f
       0.33706003 1.1811904 0.84966666 1.1447666
000030 38 4a 5e 3f e2 0e 8d bc b3 a3 c1 bd a0 f7 07 bd
       0.86832 -0.01721901 -0.09455051 -0.033195138
000040 21 98 da be e7 64 d5 be 8e e8 7f 3f c9 2d b5 3e
       -0.4269419 -0.41678545 0.99964225 0.35386494
000050 3e 38 a6 3f 36 b9 02 3e a4 5d 42 be 64 0e ba 3e
       1.2985914 0.12765965 -0.18981034 0.36339104
000060 1c 11 ce 3f e6 80 c6 bd a1 7b b3 3e 5b 4f 86 be
       1.6098971 -0.09692554 0.3505526 -0.26232418
000070 36 b2 64 3f a0 57 23 3f 91 7f 14 bf 4a fc 9e 3f
       0.8933443 0.6380558 -0.5800715 1.2420743
000080 5e e1 7e be e7 33 11 3f ce ab 05 bf fb 34 d5 be
       -0.24890658 0.5671982 -0.5221528 -0.41641983
000090 d8 9c 36 be 57 f7 41 bd bb d1 c7 3e fc 5f 36 bd
       -0.17833269 -0.047355022 0.390272 -0.04452513
0000a0 d3 a7 35 3f 16 d3 1c 3e bd a9 61 3f ec bb 8b 3d
       0.70959204 0.15314898 0.88149625 0.06822953
0000b0 bd 7a 05 be 58 ad 2e 3e f1 a4 dd be 55 8c a1 be
       -0.13035102 0.17058313 -0.43289903 -0.31552377
0000c0 14 71 0c be 3f 0e 7a 3e b0 a9 30 3e 10 66 18 3e
       -0.13715011 0.24419497 0.1725223 0.14882684
0000d0 a7 0f 99 be f9 89 96 3e 73 b8 ad 3f 80 15 3a 3d
       -0.29894754 0.2940214 1.3571914 0.04543066
0000e0 e4 13 bc 3e a4 86 61 be a0 79 9e bd 56 80 18 3f
       0.36733925 -0.22024018 -0.07738042 0.59570825
0000f0 63 ab f1 be 87 69 9a 3f d6 b3 91 be b1 06 1a 3f
       -0.4720107 1.2063454 -0.28457516 0.6016646
000100 26 d9 1c bf 6f 11 ec be 50 ed ce 3c 52 22 41 be
       -0.6126884 -0.4610705 0.025259644 -0.18860748
000110 fc 22 9f 3e be 1a 04 3e f7 c9 40 3f 48 44 03 3d
       0.31081378 0.12900826 0.75308174 0.03204754
000120 e5 9e 63 3f 5b 57 c8 3d f0 b1 a3 bc 20 84 1d 3e
       0.8891433 0.09782287 -0.019982308 0.15382433
000130 eb 6d d7 be 8e b2 c4 be cc 06 6e bd 95 8e c8 3e
       -0.42076048 -0.38417476 -0.05811195 0.3917128
000140 96 cc cc bd 0d b9 18 3e cd 13 65 be d3 77 87 3e
       -0.09999959 0.14914341 -0.22370835 0.26458606
000150 32 70 af 3f 14 09 34 3d 1c 13 b5 3e 29 04 73 be
       1.3706114 0.04395397 0.35366142 -0.23732056
000160 26 14 14 3e 3d a9 12 3f 6c 63 0e bf 4f 72 8e 3f
       0.14460811 0.5728949 -0.55620456 1.1128634
000170 ed b6 80 be 12 0e 2c 3f b9 94 0a bf 4a 7c dc be
       -0.2513956 0.6720897 -0.5413318 -0.43063575
000180 ab f1 c4 bd 05 66 38 be 86 eb b6 3e 49 35 ab bd
       -0.09616407 -0.18007667 0.35726565 -0.08359773
000190 01 8f 58 3f 5e 25 03 3e 99 94 5a 3f 17 00 d4 3d
       0.84593207 0.12807223 0.8538299 0.1035158
0001a0 6e 90 2b 3e 70 1f 0b bd 61 55 b2 be 0a b9 f3 be
       0.16754314 -0.033965528 -0.34830764 -0.4760211
0001b0 25 42 06 be b5 bf e2 3e 54 9f 2b 3e 99 57 05 3e
       -0.1311117 0.44286886 0.16759998 0.13021697
0001c0 f9 ae 62 be b6 b9 80 3e 83 ee a6 3f 88 29 1f 3e
       -0.2213706 0.25141686 1.3041538 0.15543187
0001d0 58 29 9c 3e a0 3c 87 be dc 8f 87 3d 47 15 16 3f
       0.30500293 -0.2641344 0.06619236 0.58626217
0001e0 76 31 11 bf 47 03 9b 3f bd cd 8a be ad c0 40 3f
       -0.56716096 1.2110375 -0.2711009 0.75294
0001f0 6d a4 16 bf a0 ed ed be 9c 89 dd 3d 6c 27 28 be
       -0.58844644 -0.46470356 0.108172625 -0.16421288
000200 69 44 c0 3e f0 59 8c bd a0 9c 50 3f ea 0b bf bd
       0.37552193 -0.06853092 0.8148899 -0.09328444
000210 7c 05 64 3f 51 9f c0 3d 10 2e a8 3c b8 c1 f9 3d
       0.8907087 0.09405387 0.020529777 0.12195152
000220 8b 8e d9 be 8a 72 de be 48 80 da bd 47 49 b5 3e
       -0.42491564 -0.4344676 -0.10668999 0.3540747
000230 30 d7 e1 3d 0f c3 24 3e 54 af 78 be f1 90 94 3e
       0.11027372 0.16090034 -0.24285632 0.29016832
000240 e4 a3 b5 3f 76 8d 91 bd 5b 8e af 3e 8f 23 83 be
       1.419064 -0.0710706 0.34288296 -0.25613067
000250 40 c6 9b 3c f6 a8 17 3f
       0.019015431 0.5924219

fc2.bias f4 [5]
000000 7a 24 8d 40 e6 e2 ce 3c ae 48 7f 40 a7 9b ac 40
       4.4107027 0.025254678 3.988811 5.3940005
000010 93 ca 45 40
       3.0904891

exp_avg f4 [30, 5]
000000 f3 d8 5c bc 7c 68 4d 3d b6 ad 9d c0 e2 70 9b c0
       -0.013479459 0.050148472 -4.927455 -4.8575296
000010 0a 3d 6b c0 b2 d4 20 bd ca 51 17 bb 08 ed 27 40
       -3.6756005 -0.039265342 -0.0023089522 2.6238422
000020 2d af a0 be 0d d5 86 40 73 37 9b 3a f2 a4 04 ba
       -0.3138365 4.213507 0.0011842087 -0.0005059979
000030 09 51 29 be 32 d9 93 be 01 e6 8c bf 76 3c 09 bc
       -0.16534819 -0.28876644 -1.1007692 -0.008376231
000040 2f 45 88 3a a2 c2 a1 3e a3 a1 df bd c1 73 7f be
       0.0010396595 0.31593806 -0.10919502 -0.249465
000050 a2 38 0f 3c 21 d6 90 3b 3a d2 2b c0 ab 81 2b bf
       0.00874153 0.0044200574 -2.6847062 -0.6699473
000060 ff f6 20 c0 7b 9d ce 3b b3 c6 66 3c a3 e5 e1 be
       -2.5150754 0.006305394 0.0140854595 -0.4412051
000070 7c c4 f3 be ff 17 85 bd 00 00 00 00 00 00 00 00
       -0.47610843 -0.064987175 0.0 0.0
000080 00 00 00 00 00 00 00 00 00 00 00 00 28 a3 51 3c
       0.0 0.0 0.0 0.012795247
000090 d9 48 a8 3a 82 75 0f c0 c9 ca 0e c0 37 a2 a5 bf
       0.0012839093 -2.241547 -2.231127 -1.2940129
0000a0 ec 01 0f bd 72 9b 01 3b dd 0e 86 40 c9 69 8a 40
       -0.034913942 0.001977649 4.1893144 4.325413
0000b0 f6 af 2e 40 04 00 00 80 04 00 00 00 04 00 00 80
       2.7294898 -6e-45 6e-45 -6e-45
0000c0 04 00 00 00 00 00 00 00 d4 ef bf bd 79 ea 7f b7
       6e-45 0.0 -0.093719155 -1.5253777e-05
0000d0 d5 78 07 41 ff d3 05 41 ea 02 32 40 04 00 00 00
       8.467 8.364257 2.7814279 6e-45
0000e0 04 00 00 00 04 00 00 00 04 00 00 00 04 00 00 00
       6e-45 6e-45 6e-45 6e-45
0000f0 29 24 86 bd ee b5 27 3c bb c0 50 41 4d 11 4c 41
       -0.06549866 0.0102362465 13.047053 12.754224
000100 b0 7a af 40 0f de 9c bb d3 7c 8c bb ae 02 10 3f
       5.4837265 -0.0047872136 -0.004287341 0.5625409
000110 f0 84 d6 3e da 9d 90 bc 04 00 00 80 04 00 00 00
       0.41898298 -0.017653394 -6e-45 6e-45
000120 04 00 00 80 04 00 00 00 00 00 00 00 00 00 00 00
       -6e-45 6e-45 0.0 0.0
000130 00 00 00 00 00 00 00 00 00 00 00 00 00 00 00 00
       0.0 0.0 0.0 0.0
000140 10 0f 25 3d 89 c3 06 3c 97 25 ac c0 71 5e c0 c0
       0.040297568 0.00822533 -5.3795886 -6.0115285
000150 61 c4 79 c0 0c 3b 01 3d 82 32 88 bb 41 1f 94 c0
       -3.902611 0.031550452 -0.0041564116 -4.628815
000160 d0 1e ad c0 92 17 c7 bf 04 00 00 00 04 00 00 00
       -5.4100113 -1.5554068 6e-45 6e-45
000170 04 00 00 00 04 00 00 00 00 00 00 00 cc 4a 16 bd
       6e-45 6e-45 0.0 -0.036692426
000180 74 1c 9a bc 1c e4 87 40 4f 88 83 40 56 d5 97 3f
       -0.018812396 4.2465954 4.110389 1.186198
000190 04 00 00 80 04 00 00 00 04 00 00 80 04 00 00 00
       -6e-45 6e-45 -6e-45 6e-45
0001a0 00 00 00 00 8e 24 0b bb d1 44 e7 3a c1 39 80 3f
       0.0 -0.0021231505 0.001764441 1.0017625
0001b0 19 c0 a4 3f b9 e6 83 3e e1 6d a5 3c e2 3a aa ba
       1.2871124 0.25761965 0.020193996 -0.0012987519
0001c0 e2 32 d9 bf 8d 96 1f c0 65 ba 2f bf 01 5d 03 bd
       -1.6968653 -2.493564 -0.6864379 -0.032071117
0001d0 88 50 9f ba 4d 58 58 40 73 e2 40 40 24 b7 97 3f
       -0.0012154737 3.3803895 3.0138214 1.1852765
0001e0 c1 4f b2 bc 79 c3 92 bb 43 42 95 40 b9 74 ae 3f
       -0.021766545 -0.0044788686 4.6643386 1.3629371
0001f0 1c d6 63 40 00 00 00 00 00 00 00 00 00 00 00 00
       3.5599432 0.0 0.0 0.0
000200 00 00 00 00 00 00 00 00 14 84 4a bc 77 2f e8 3c
       0.0 0.0 -0.012360591 0.028342946
000210 cb ea 9a 40 f4 6b a5 40 64 f5 37 40 60 12 bf 3c
       4.8411613 5.169428 2.8743525 0.023324192
000220 b4 81 81 3a 22 36 23 c0 f3 dc 2a c0 a8 49 30 bf
       0.0009880573 -2.550179 -2.6697357 -0.6886239
000230 04 00 00 80 04 00 00 00 04 00 00 80 04 00 00 00
       -6e-45 6e-45 -6e-45 6e-45
000240 00 00 00 00 9c ff 22 bc a8 d4 8d bb 5c d1 80 3f
       0.0 -0.009948637 -0.004328329 1.0063891
000250 2b 17 ce 3f 68 14 53 40
       1.610082 3.2981205

exp_avg_sq f4 [30, 5]
000000 dc e2 43 3d d1 0b a4 3c b4 28 34 44 34 d5 5e 44
       0.04782377 0.020025166 720.636 891.3313
000010 96 ae 6f 43 29 d6 6a 3e c1 3e d5 3d 2b c6 ce 44
       239.68198 0.22933258 0.1041236 1654.1927
000020 8b f0 27 45 f6 a6 23 44 2b 5a 25 3c 30 ab 61 39
       2687.034 654.60876 0.0100922985 0.00021521444
000030 28 0e 34 3f 63 c3 e2 40 4e a9 bf 40 22 52 24 3b
       0.703341 7.086351 5.989417 0.002507337
000040 95 94 7b 3a 7c ac ab 40 a7 1c 2e 42 35 cf 57 41
       0.00095970306 5.364805 43.52798 13.488088
000050 ea f1 a9 3d 87 7b 24 3b 1e 22 32 42 88 be 8e 40
       0.082980946 0.0025098042 44.533318 4.460758
000060 96 db d2 41 70 6d ff 3d 8f f8 c2 3b 2d 38 62 41
       26.35722 0.124720454 0.0059500406 14.138715
000070 10 20 7c 41 11 e3 95 3e 00 00 00 00 00 00 00 00
       15.757828 0.292748 0.0 0.0
000080 00 00 00 00 00 00 00 00 00 00 00 00 cb a4 c8 3a
       0.0 0.0 0.0 0.0015307901
000090 c3 ba 98 3b 29 2d dd 42 25 75 1e 43 89 84 06 42
       0.0046609356 110.5882 158.4576 33.62943
0000a0 61 9a c9 3c 5a 82 99 3c 2a 69 cf 43 5e ec 05 44
       0.024609746 0.018738914 414.8216 535.69324
0000b0 d1 dc ee 42 00 00 00 00 00 00 00 00 00 00 00 00
       119.43128 0.0 0.0 0.0
0000c0 00 00 00 00 00 00 00 00 d8 95 bf 3c b5 7c 78 3d
       0.0 0.0 0.02338688 0.060665805
0000d0 1a 5a 5a 44 dd cf 9c 44 c2 1a 28 43 75 87 dc 29
       873.40784 1254.4957 168.10452 9.793461e-14
0000e0 c9 b3 05 00 75 87 dc 29 90 e8 51 05 f4 63 2b 08
       5.23672e-40 9.793461e-14 9.869848e-36 5.1575935e-34
0000f0 01 d7 dc 3c 9e 6e a0 3d 66 e6 91 44 70 e5 d6 44
       0.02695799 0.078335986 1167.2 1719.1699
000100 57 2a 94 43 91 14 04 3a 5b c7 85 3a ae f1 92 41
       296.33078 0.0005038465 0.0010206507 18.368008
000110 9f 32 a3 41 25 07 99 40 00 00 00 00 00 00 00 00
       20.399717 4.782122 0.0 0.0
000120 00 00 00 00 00 00 00 00 00 00 00 00 00 00 00 00
       0.0 0.0 0.0 0.0
000130 00 00 00 00 00 00 00 00 00 00 00 00 00 00 00 00
       0.0 0.0 0.0 0.0
000140 75 b4 aa 3b 1b 38 1b 3c f0 94 68 43 e5 05 de 43
       0.0052095004 0.009473826 232.58179 444.04605
000150 0d 9f c5 42 a7 aa 18 3c b4 17 bf 3c 78 19 fc 43
       98.810646 0.00931803 0.023326732 504.19897
000160 4e c3 15 44 82 cc d9 42 20 d9 04 2b 00 00 00 00
       599.05164 108.89943 4.719714e-13 0.0
000170 20 d9 04 2b 00 00 00 00 00 00 00 00 1a e0 d6 3c
       4.719714e-13 0.0 0.0 0.026229907
000180 da 58 8d 3c af 6e c6 43 a1 29 f6 43 f8 19 c7 42
       0.017254282 396.86472 492.32523 99.55072
000190 00 00 00 00 00 00 00 00 00 00 00 00 00 00 00 00
       0.0 0.0 0.0 0.0
0001a0 00 00 00 00 d2 6c a1 3a 83 28 1b 3b 60 45 1d 42
       0.0 0.0012315756 0.002367527 39.31775
0001b0 a8 8d 74 42 e5 5b 08 41 80 db 70 3b aa ea 07 3c
       61.138336 8.522435 0.0036751926 0.008295694
0001c0 24 9f 2b 43 7b 96 67 43 10 20 38 42 6e fb ca 3c
       171.62164 231.58781 46.03131 0.024778094
0001d0 e0 81 45 3c 1c 3e 8f 43 e8 e3 bd 43 50 3e 9a 42
       0.01205489 286.48523 379.78052 77.121704
0001e0 19 e7 c5 3e f3 22 3f 3d 93 bc 94 43 68 91 9f 42
       0.38652876 0.04666419 297.47324 79.784
0001f0 be f6 00 43 00 00 00 00 00 00 00 00 00 00 00 00
       128.96384 0.0 0.0 0.0
000200 00 00 00 00 00 00 00 00 19 28 bf 3c 6e 1b 39 3c
       0.0 0.0 0.02333455 0.011298044
000210 d9 45 52 43 1b 76 ca 43 e8 5c 97 42 67 20 61 3c
       210.27284 404.9227 75.68146 0.0137406355
000220 5b 1f 0d 3c 8b 41 24 43 eb 54 79 43 51 c8 2b 42
       0.008613433 164.25603 249.33171 42.94562
000230 00 00 00 00 00 00 00 00 00 00 00 00 00 00 00 00
       0.0 0.0 0.0 0.0
000240 00 00 00 00 52 56 0c 3b 02 10 d9 3a f9 ae 85 41
       0.0 0.0021413756 0.0016560557 16.710436
000250 5d 0c c3 41 38 b5 07 42
       24.381037 33.92697

exp_avg f4 [30]
000000 a0 03 28 bc 0c ef 4b 3b 02 93 1c bb 65 e4 17 3a
       -0.0102547705 0.0031117825 -0.0023891334 0.00057942263
000010 63 94 e1 bb 27 79 96 ba 00 00 00 00 10 29 9a bb
       -0.006884144 -0.0011480198 0.0 -0.004704602
000020 3f 1d 1d 3c 04 00 00 00 df 86 e3 3c 04 00 00 00
       0.009589492 6e-45 0.027774272 6e-45
000030 9b 4c 2b 3d ea ba d1 39 04 00 00 00 00 00 00 00
       0.041821104 0.00040002848 6e-45 0.0
000040 0b 00 1f bc f1 60 0a bc 04 00 00 00 b6 01 cd 3b
       -0.0097046 -0.008445964 6e-45 0.0062563075
000050 04 00 00 00 34 dc 72 3a 22 7d 6c bb 93 23 b2 3b
       6e-45 0.000926438 -0.0036085327 0.0054363697
000060 a6 cf 2b 3c 00 00 00 00 ce f4 43 3c 14 65 9e bb
       0.010486519 0.0 0.011960221 -0.004833827
000070 04 00 00 00 a3 e7 00 3c
       6e-45 0.0078677265

exp_avg_sq f4 [30]
000000 24 be 64 3b ab 0e 1e 3c 4e 8a 1b 38 64 73 f7 38
       0.0034903372 0.009647052 3.7083686e-05 0.00011799371
000010 b3 42 5d 39 cb 04 ac 38 00 00 00 00 5d 5c 16 3a
       0.0002110105 8.202492e-05 0.0 0.0005735809
000020 3d d6 08 3b e6 d6 1e 1f 94 32 97 3b ac 39 b8 20
       0.002087965 3.363556e-20 0.0046141837 3.1208977e-19
000030 81 97 d6 3b 19 00 b8 38 d2 be 0f 00 00 00 00 00
       0.0065488224 8.773822e-05 1.445986e-39 0.0
000040 01 a2 ad 3a 20 d5 15 3b ba 9e c9 21 01 00 fa 3a
       0.0013247133 0.0022862628 1.3662304e-18 0.0019073487
000050 99 c0 3e 1f e3 23 46 39 43 ad 60 3a ca dc b7 3a
       4.0393378e-20 0.0001889612 0.000857074 0.0014027592
000060 4b 74 c1 3a 00 00 00 00 08 f1 9b 3a a1 c5 59 3a
       0.001475939 0.0 0.0011897394 0.0008307342
000070 50 c5 b9 1e c6 72 82 39
       1.9669243e-20 0.00024881045

exp_avg f4 [5, 30]
000000 28 a7 ed 3e ad 9b 3c bc 82 89 27 3e 6d f4 ce 3b
       0.46416593 -0.011511725 0.16361049 0.006315759
000010 19 a1 d1 3d 5f 54 32 bc 00 00 00 00 dc 9d b4 3e
       0.10235805 -0.010884373 0.0 0.35276687
000020 7a 71 87 3f 04 00 00 00 6b 0b 26 3c 04 00 00 00
       1.0581505 6e-45 0.010134558 6e-45
000030 82 c2 20 3e 30 3b 2f 3e 04 00 00 80 00 00 00 00
       0.15699199 0.17112422 -6e-45 0.0
000040 2c 36 2a 3e 5a a7 f1 3e 04 00 00 00 ae 41 f0 3e
       0.16622227 0.47197992 6e-45 0.4692511
000050 04 00 00 00 82 54 cc 3e c2 f8 39 3f 61 a7 42 3f
       6e-45 0.39908224 0.726452 0.7603665
000060 1f eb 53 3d 00 00 00 00 3e f9 28 3e f9 39 3e 3f
       0.0517379 0.0 0.16501328 0.7430721
000070 04 00 00 00 2a a7 02 3e 31 f4 e4 3e e3 4a ec 3d
       6e-45 0.1275908 0.44717553 0.11537721
000080 89 1e 6e 3e 60 c9 f7 bb 08 4f 44 bd f7 1e a0 3c
       0.23253836 -0.0075618476 -0.047926933 0.019546015
000090 00 00 00 00 8d 60 c4 3e a1 9e 95 3f 00 00 00 00
       0.0 0.38354912 1.1689035 0.0
0000a0 e8 e2 e8 be 00 00 00 00 22 de 08 3e b6 a8 d1 3c
       -0.45485616 0.0 0.13365987 0.025593143
0000b0 00 00 00 00 00 00 00 00 29 b8 db 3e df ba 05 3e
       0.0 0.0 0.4291394 0.13059567
0000c0 00 00 00 00 a2 a6 03 3f 00 00 00 00 d6 91 a0 3e
       0.0 0.51426136 0.0 0.31361264
0000d0 0f 37 2e 3f 10 2b 33 3f fe bf 38 bd 00 00 00 00
       0.6805276 0.69987583 -0.045104973 0.0
0000e0 36 6b 0c 3f c8 be 0d 3e 00 00 00 00 b7 7c b5 3d
       0.5485109 0.13842309 0.0 0.08861678
0000f0 41 37 c1 bd fa 67 fd bd 2f 08 d4 3d 21 c2 49 3a
       -0.09434367 -0.123733476 0.103531234 0.0007696469
000100 6b f8 62 3d ac e0 98 bc 00 00 00 00 9f 4b b5 3d
       0.05541269 -0.01866182 0.0 0.08852314
000110 35 75 04 bf 00 00 00 00 f9 66 c1 3d 00 00 00 00
       -0.51741344 0.0 0.094434686 0.0
000120 dc 04 84 3d a0 1d db be 00 00 00 00 00 00 00 00
       0.06446239 -0.4279604 0.0 0.0
000130 5d 4c 62 3d cc 85 65 be 00 00 00 00 b9 74 fd be
       0.055248607 -0.2241432 0.0 -0.49503115
000140 00 00 00 00 87 4f 7a be f0 07 2d 3e a1 e9 1c bf
       0.0 -0.244444 0.16897559 -0.6129399
000150 08 8b c0 3c 00 00 00 00 9c 43 39 3e ba 05 6e bc
       0.023503795 0.0 0.18092197 -0.0145277325
000160 00 00 00 00 b2 94 87 3d fd 73 35 3f 6e 18 01 3e
       0.0 0.06620158 0.7088011 0.12606975
000170 53 0c bb 3e 69 94 05 bb 5b 67 25 3d bf 9c 24 3d
       0.3653284 -0.0020382649 0.04038177 0.040188547
000180 00 00 00 00 e0 08 05 3f 37 d7 d0 3f 00 00 00 00
       0.0 0.5196667 1.6315678 0.0
000190 2c 5f 59 3f 00 00 00 00 43 a8 d2 3e e8 d5 45 3f
       0.84910846 0.0 0.41143999 0.7727952
0001a0 00 00 00 00 00 00 00 00 cc 73 38 3e e6 ff ad 3f
       0.0 0.0 0.18012923 1.3593719
0001b0 00 00 00 00 5e 8c 2c 3f 00 00 00 00 a0 bd f0 3e
       0.0 0.67401683 0.0 0.47019672
0001c0 ce 8a 8b 3f b6 0c a0 3f ca b5 bd 3c 00 00 00 00
       1.0901735 1.2503879 0.023157973 0.0
0001d0 56 8f 86 3e 04 e8 c2 3f 00 00 00 00 fc 98 77 3e
       0.26281232 1.5227056 0.0 0.24179453
0001e0 f5 2b 07 bc 44 28 11 be d8 b2 ca bc 3b 1a 2c bc
       -0.008250226 -0.14175516 -0.024743482 -0.010504301
0001f0 f3 f2 2a bc 10 8c e5 bb 00 00 00 00 c5 52 07 3e
       -0.0104339 -0.007005222 0.0 0.13215168
000200 44 9c 66 3e 00 00 00 00 0a 93 9a bc 00 00 00 00
       0.22520548 0.0 -0.018868942 0.0
000210 41 2c 0e 3c 48 02 6b 3c 00 00 00 00 00 00 00 00
       0.008677543 0.014343806 0.0 0.0
000220 bf 05 e0 3d bd 5a 26 3e 00 00 00 00 2f 8d dd 3d
       0.10938596 0.16245551 0.0 0.10817944
000230 00 00 00 00 15 55 41 3e a2 ee d1 3e 05 30 81 3e
       0.0 0.18880112 0.41002375 0.25231948
000240 a5 db 8e bc 00 00 00 00 aa 78 fe 3c f8 74 dc 3e
       -0.017438719 0.0 0.031063396 0.4305799
000250 00 00 00 00 15 af 9a 3a
       0.0 0.0011801446

exp_avg_sq f4 [5, 30]
000000 b0 cb 96 40 65 67 8a 40 03 49 ec 3e 9f 24 c6 3b
       4.712364 4.3251214 0.46149454 0.006046846
000010 72 b6 e8 3e c9 2a 34 40 00 00 00 00 a0 72 a5 40
       0.45451695 2.8151114 0.0 5.1702423
000020 51 13 1f 42 28 8e 6c 1f 92 20 8d 40 9c e4 02 25
       39.768864 5.0092533e-20 4.410226 1.1353158e-16
000030 64 03 71 3f 59 2f 1b 41 f4 08 00 00 00 00 00 00
       0.941458 9.6990595 3.212e-42 0.0
000040 11 64 35 40 28 f2 3c 41 d9 50 19 29 e2 d5 c0 40
       2.8342326 11.80912 3.404295e-14 6.0261087
000050 f2 3f 3a 1f ac e5 3a 40 1e ed 4e 42 86 89 a5 41
       3.9439926e-20 2.920268 51.73156 20.69215
000060 c9 80 79 3d 00 00 00 00 32 31 44 41 56 16 3c 42
       0.060913835 0.0 12.262011 47.021812
000070 b7 3c 15 1f ae 66 37 3e 86 07 9f 40 fd b5 80 3e
       3.16022e-20 0.17910263 4.9696684 0.25138846
000080 67 b4 49 3e 55 a4 4a 3b 3e ec 26 3e 07 53 ea 3c
       0.19697724 0.0030920703 0.16301057 0.028604044
000090 00 00 00 00 02 e6 de 40 34 93 21 42 00 00 00 00
       0.0 6.965577 40.393753 0.0
0000a0 96 3f e2 40 00 00 00 00 ea c9 34 40 0e 5f a8 40
       7.070262 0.0 2.8248239 5.2616034
0000b0 00 00 00 00 00 00 00 00 76 3b 22 40 54 28 73 41
       0.0 0.0 2.5348792 15.197346
0000c0 00 00 00 00 f6 e9 b1 40 00 00 00 00 3f 8c 1e 40
       0.0 5.5598097 0.0 2.47731
0000d0 9e 84 3d 42 1f f4 a7 41 10 e9 ad 3d 00 00 00 00
       47.37951 20.9942 0.08491719 0.0
0000e0 7b 5f 1a 41 7c 85 1f 42 00 00 00 00 2f a7 d8 3d
       9.648311 39.880356 0.0 0.10578763
0000f0 37 dd bc 40 2e fa 39 3f 5b c5 26 3e f0 72 9e 3a
       5.902004 0.7264737 0.16286223 0.0012088697
000100 fb 3d e7 3d eb ba 26 3d 00 00 00 00 5c d3 ef 3f
       0.11291119 0.040705603 0.0 1.8736377
000110 81 6d 0a 42 00 00 00 00 c3 63 16 40 00 00 00 00
       34.606937 0.0 2.349839 0.0
000120 ca 35 93 3e f3 88 cd 40 00 00 00 00 00 00 00 00
       0.28751975 6.4229674 0.0 0.0
000130 91 34 0a 40 7d bd f4 40 00 00 00 00 fc 93 ab 40
       2.1594584 7.648131 0.0 5.3618145
000140 00 00 00 00 6d 96 06 40 9b df ad 41 51 11 7a 41
       0.0 2.1029313 21.734182 15.629228
000150 4e fd 4b 3d 00 00 00 00 b4 ff f5 40 53 69 ac 41
       0.049802117 0.0 7.6874638 21.551428
000160 00 00 00 00 e6 9c 52 3d 6b dc ba 40 65 b5 80 3e
       0.0 0.05141916 5.8394065 0.25138393
000170 92 0f e0 3e 9d 08 bb 3c c4 24 9c 3d fd ba ee 3c
       0.4376188 0.022831256 0.076242 0.029141897
000180 00 00 00 00 69 95 71 40 3f 15 64 42 00 00 00 00
       0.0 3.7747443 57.02075 0.0
000190 53 6f 1a 40 00 00 00 00 6c e0 12 3f 14 06 ca 40
       2.4130447 0.0 0.5737369 6.313242
0001a0 00 00 00 00 00 00 00 00 11 f8 b6 40 95 ad 1b 41
       0.0 0.0 5.7177815 9.729878
0001b0 00 00 00 00 0b 73 6c 41 00 00 00 00 a3 4f f1 40
       0.0 14.778087 0.0 7.5409713
0001c0 58 d2 0a 42 56 7b 00 42 b2 7f bc 3c 00 00 00 00
       34.705414 32.120445 0.023010109 0.0
0001d0 5f 17 38 41 40 57 fa 41 00 00 00 00 5e 36 54 3e
       11.505706 31.292603 0.0 0.20723864
0001e0 e7 fc 06 40 95 c4 a5 3e 24 fe c7 3d 25 47 bd 3b
       2.109186 0.32376543 0.0976527 0.0057763034
0001f0 f0 cc a0 3d bf 74 34 3c 00 00 00 00 89 9d 25 40
       0.07851589 0.011014163 0.0 2.5877402
000200 24 36 cd 41 00 00 00 00 0e 13 14 40 00 00 00 00
       25.651436 0.0 2.313663 0.0
000210 f3 1a 15 3f 7c fd 70 40 00 00 00 00 00 00 00 00
       0.58244246 3.7654715 0.0 0.0
000220 74 35 24 40 a7 8a ea 40 00 00 00 00 d6 c9 cf 40
       2.5657625 7.3294253 0.0 6.493388
000230 00 00 00 00 12 0f 6e 40 23 2d c8 41 5f b2 7c 41
       0.0 3.7196698 25.02204 15.793548
000240 e6 e6 25 3d 00 00 00 00 54 1b fe 40 73 18 be 41
       0.040503405 0.0 7.940836 23.761938
000250 00 00 00 00 59 ea d8 3c
       0.0 0.026478933

exp_avg f4 [5]
000000 d8 8a c9 3b 4c 56 0b 3c c8 74 9f bb 1c db 85 3c
       0.0061505847 0.0085044615 -0.0048662163 0.016339831
000010 55 12 07 ba
       -0.0005152573

exp_avg_sq f4 [5]
000000 d6 32 1a 3b 8d 85 2e 3b 04 98 f0 3a 8c 89 3a 3b
       0.0023528836 0.0026629895 0.0018355851 0.0028463332
000010 59 18 d4 3a
       0.0016181573
